neural_net_mnist.pth.tar (torch, 723292 bytes, 8 tensors)

weight f4 [196, 784]
00000000: f538 ec3c fc3f 16bc 5ff5 113d 32b4 0d3d
00000010: 9a35 c8bc ef49 bcbc cdfa cb3c 2921 da3c
00000020: fb75 ff3b 8363 a33c 9512 eb3c d8e1 653c
00000030: e7fe b63c 93a8 f4bb bcfc 683c d32e 52bc
00000040: d1c4 e33c 8903 113d 6afe 083d 216d a8bc
00000050: 9d00 943b 17e5 013c 2db6 75bc a93c a43c
00000060: 7cd8 debc 75ad 273c 77e5 e83c 40f5 3a3c
00000070: 68e8 e4bc 9b39 c33c eda5 fc3c 9669 b3bc
00000080: 2c4c 493c 611e b6bb 69df fd3c c473 a0ba
00000090: cd35 8cbc c3c0 afbc 72cf 293d 31f0 9ebc
000000a0: fdbe d53c 34a6 433c 767e 8b3c e952 d13c
000000b0: d5cf e8bb aea8 19bc 060e 1b3d 49f2 a43c
000000c0: 243b f53b 0f61 a3bc 53e4 fa3c 936f 003d
000000d0: 8bb7 e33c d951 aa3c 1d0b cfbc bac2 f0bc
000000e0: e5f4 013d 3c67 8f3a eee9 26bc b414 293d
000000f0: ddce 9e3b 6890 2e3b 3616 853c 98f7 6a3c
00000100: cb06 fb3c d2ea 25bc a8f8 743c f6ad 213d
00000110: cb0a b33c fd68 b73c 50e5 393c 2f88 44bc
00000120: 8cac 853c 2cdc 773c c71e 823c 7c9f 29bc
00000130: 5bc5 f2bc 1c3c 253d bc70 72bc 0a54 54bc
00000140: e526 fbbb 8a0c 59bb 53d9 adbc 15e4 813c
00000150: dbb1 f23c e7bb cb3c 7499 ddbc 05ab cfbc
00000160: d79d e63c c6d4 2a3d 35f6 9e3c 9027 6c3c
00000170: a7cf d13c da38 dfbc 25fc 8a3b 53ae f23c
00000180: 51ee ebbc c6ea c3bb 8d9a abbc 4957 23b9
00000190: abaa c23b bac3 adbc 2342 bbbc 75ce d1bc
000001a0: 236a 97bc a36d be3c 0567 43bc c84e 593b
000001b0: 9500 9ebc ba5e a9bc c046 0a3d b656 1fbc
000001c0: 11e3 c2bc 3331 8dbc 60f3 92bb 88fc ccbc
000001d0: 9fca 6cbc 31ca d43c 6774 aa3c 2fa1 cebc
000001e0: 6f81 a4bc b5d2 1e3c 723f 023d abb2 b73b
000001f0: c7df f73b a354 afbc 764a 45bc 983a 71bc
00000200: b4e8 223d 3d5f f1bc aa4f a3bb 1f3d 323c
00000210: 9ad2 13b9 c447 4f3c 790a f4bb f6a1 bcbc
00000220: 044e debb ab30 edbb 00d3 0b3d 686c 8abc
00000230: aa98 b6bc 947d 293c 8d7a cc3c 7085 323c
00000240: b121 99bc 47e4 783b 8867 5e3b f1df 073d
00000250: 87b9 113c d8cd ca3c 740f 4a3c 6205 5d3c
00000260: f0bc 66bc 16db 053d b4db d9bc ccfd a5bc
00000270: 73b2 eb3b f4e6 0b3d e7c1 25bc 50aa 293d
00000280: 3ec0 81bc eefd 913c c3eb ce3c 41cc 0f3c
00000290: b2c3 5ebc b40b 1f3d cf52 59bc 7d7f a93c
000002a0: f150 c1bc 0023 4a3c 9647 253d b5d6 a13c
000002b0: a8db 29bc 283c dbbc 5762 bc3c 730b 063d
000002c0: 46e3 293d c01b 033d 66e4 773c 3f56 81bc
000002d0: 39f5 7cbc 0fe2 dc3c d4a2 9bbb dc34 71bc
000002e0: 5775 a7bc d3f4 89bc 29e1 093b f3ec 20bb
000002f0: fbac eabc 76d3 233d 9ffc a13b 344a dc3c
00000300: a778 f93c 3856 2e3b 5de5 91bc 9b6d da3c
00000310: c171 d6bc 2428 843b af25 e9bc e18e 60bb
00000320: 48ae 9fbc b07e 273d 9b4b a43c c6c9 ad3c
00000330: 0fbd 083c 4a2a 243c 514b ecbc 21ba 2c3c
00000340: bc0e 293d 53f0 a73c 527d 3c3c 6643 04bb
00000350: 2fd4 a63c 4448 b6bc 0fc5 b4bc 3883 96bc
00000360: c981 e2bc 729a 28bc e02d d33b 25c8 a3bc
00000370: 033c c13c 31bf c33c 8f08 edbc 64d7 8a3b
00000380: 442b ba3b 70b0 143d 471e 253b 3277 0d3c
00000390: c4e8 91bb a7f4 103d 1730 76bc 4afb 2aba
000003a0: 60d6 c8bc c35a f33b e3cf e03c 42d9 b73c
000003b0: 0e35 c83b 4698 38bb 0904 b6bc e1c3 ab3c
000003c0: a552 09bd 3d6d f0bc fe0f 3b38 f2ff 30ba
000003d0: c7c4 d3bc 5f32 a7bc 1eb0 523c 9adb 3a3c
000003e0: 4d77 cdbb a428 f23b a363 913c a8c1 a6bc
000003f0: 394e 1c3c c3f1 d73b 2b93 863c c0a6 07bc
0.028835753 -0.0091705285 0.035634395 0.034595676 -0.024439622 -0.022984473 0.024899865 0.02662714
0.007796047 0.019944912 0.028695384 0.014030896 0.022338344 -0.0074663847 0.014220413 -0.012828547
0.02780381 0.035403762 0.033445753 -0.02055985 0.0045166747 0.007928154 -0.014997047 0.020048456
-0.027202837 0.0102342265 0.02842973 0.011411011 -0.027942851 0.02383118 0.030840838 -0.021900933
0.012286227 -0.0055578207 0.03099032 -0.0012241532 -0.017115498 -0.02145422 0.0414576 -0.019401642
0.026092047 0.011941481 0.017028075 0.02555223 -0.0071048536 -0.009378595 0.03785517 0.020135062
0.0074838568 -0.019943742 0.030626452 0.031356405 0.027797481 0.020790981 -0.025273854 -0.029389728
0.03172769 0.00109408 -0.010187609 0.04127951 0.0048464374 0.0026636366 0.016245943 0.0143412575
0.030642888 -0.010126786 0.014951862 0.039472543 0.021855732 0.02238893 0.011346176 -0.011995359
0.016317628 0.015128177 0.015883816 -0.010352965 -0.029635122 0.040340528 -0.014797386 -0.01295949
-0.0076645487 -0.0033119046 -0.021221792 0.015855828 0.029625824 0.024869872 -0.027050711 -0.025350103
0.028151436 0.041706823 0.01940451 0.014413729 0.025611712 -0.027248789 0.0042414838 0.02962414
-0.028800162 -0.005978915 -0.020947719 -0.00015577408 0.0059407554 -0.021211494 -0.022858685 -0.025611142
-0.018483227 0.023245638 -0.011926417 0.003315853 -0.019287387 -0.020675052 0.03375888 -0.009725263
-0.023789914 -0.017235374 -0.004484579 -0.02502276 -0.0144526055 0.025975319 0.020807458 -0.025223343
-0.02008125 0.009693791 0.031798787 0.0056060157 0.007564518 -0.021402663 -0.012041679 -0.0147234425
0.039772704 -0.029464358 -0.004983862 0.01087883 -0.00014097468 0.012651388 -0.0074475375 -0.023026448
-0.0067842025 -0.0072384677 0.034136772 -0.016897395 -0.022289593 0.010344882 0.02496078 0.010896072
-0.018692823 0.003797786 0.003393622 0.03317255 0.008894331 0.024756357 0.012332786 0.013490053
-0.014083132 0.03267964 -0.02659402 -0.020262621 0.0071929037 0.0341558 -0.010117031 0.04142219
-0.015838739 0.017821278 0.025258904 0.008776725 -0.013596462 0.03882952 -0.013264372 0.020690674
-0.023598166 0.012337446 0.040351473 0.0197557 -0.010367312 -0.026762083 0.02299611 0.032725763
0.04147651 0.032008886 0.015130138 -0.015788196 -0.015439325 0.026963262 -0.0047496352 -0.014722075
-0.020441694 -0.016840374 0.0021038747 -0.0024555295 -0.028646937 0.039996587 0.004943445 0.026890852
0.03045304 0.0026601683 -0.017809564 0.026663592 -0.026177289 0.0040331054 -0.028460352 -0.003426485
-0.019492283 0.040892303 0.020055583 0.021214377 0.008345856 0.010019848 -0.028844507 0.010542423
0.041273817 0.020500338 0.011504488 -0.0020181774 0.020364849 -0.022251256 -0.022066621 -0.018373117
-0.027649777 -0.010290729 0.0064446777 -0.019992897 0.023588186 0.023894878 -0.028934745 0.0042371023
0.005681427 0.036301076 0.0025195049 0.008634375 -0.0044527967 0.03538957 -0.015026114 -0.00065224303
-0.024516284 0.007426591 0.027442878 0.022442464 0.0061098402 -0.0028166934 -0.022218721 0.020967426
-0.03352608 -0.029348964 4.4599168e-05 -0.0006752006 -0.025850667 -0.020409761 0.012859372 0.011404896
-0.0062703253 0.0073900986 0.017747706 -0.020356014 0.009540134 0.0065900995 0.016427597 -0.008279502

bias f4 [196]
00000000: 31e8 7dbc 3c11 883a 31b6 4fbc e9bd d2bc
00000010: eb95 92bc 309d 35bd b0f0 1abd ced8 ce3c
00000020: 62d7 a83c 53a0 e6bc 0022 d0bb d1f8 86bc
00000030: 9aca 66bd 773c 51bd d9cf 903b 4894 143c
00000040: e4c0 e4bc 4b2a 023a 624b f43a 92ce f23c
00000050: 309a fcbb 7d67 32bd 52e2 cebb 7bf7 14bd
00000060: c2d2 f5bc 034f a1bd b810 03bc 439e 01bc
00000070: 7b42 cf3b 8366 7fbc 20fb 513c 4bfd f3bc
00000080: b362 ee3b 6858 68bc 83f9 5b3c 3503 a73c
00000090: 549c a9ba 3bdb f5bc 4833 a73c d0a7 56bd
000000a0: 78f1 1d3c a004 b6bd ba9d 14bd 05bb 1bbc
000000b0: 5061 11bd 2211 3cbd aaab 21bd 6129 07bd
000000c0: 0eb7 61bc 86c9 17bd 5ecf 4fbc 9e3f b63c
000000d0: 95b7 053c 9b53 7cbc 5bf5 3dbd 30e8 08bd
000000e0: b41f c7bc 7a6e 853a 0284 b5ba 1fec 0dbd
000000f0: d4c3 a33c d59c 8ebd fb33 e83c 9be7 153a
00000100: cb06 31bb cc7d c33c 3d18 25bc 36cc 9cbc
00000110: 03a5 693b 3b57 c4bb a339 87bd d36c 8c3c
00000120: ac3d e4bc a824 4dbb 673c 04bd 3684 a83b
00000130: 758b c1bb fa71 78bc 937d 763c 9055 b63b
00000140: d2d7 e73c 8c8b 1fbb a4f8 87bc 5607 a939
00000150: 264d 67bc 55c8 5cbd 5a9c 0b3b 231b 943b
00000160: a77a 143a 0204 1cbc fd93 b6bd 0182 d23b
00000170: d2ff 98bb 1af9 5d3c b5c4 9abc deef a6bc
00000180: 2fc0 d1bc 64bc cdbc 93ec 11bd 2789 ccbc
00000190: db20 2cbc 292e 03bd a3c6 2cbd 7128 d23c
000001a0: 64ed a0bd 8b34 813c 3fd2 d43c 66c7 17bc
000001b0: d70c 93bc e65f d0bc 6695 6abc 1b97 60bd
000001c0: ff69 2cbd 69e8 0bbd b76d f03c 9a86 a23c
000001d0: a8b4 27bd 568f 8cbc 7072 f7bc 7d84 3b3c
000001e0: d0f3 a3bc 9c92 12bb 9621 2d3c fc93 bfbc
000001f0: b2c7 a23c ce58 e8bc 98a5 093d 8fa8 70bb
00000200: 6b3a 0dbc 7acf 07bc 5a67 abbc 806e 93bd
00000210: dad8 6bbd ed80 f5bc 7ee3 0bbd 91e4 24bd
00000220: dcc7 843c a749 f7bc 8739 29bc a793 92bd
00000230: 2014 f6b9 15bf c73b fa30 28bd a4b7 563c
00000240: ed63 0bbd 6930 2b3d 51db 8abc 931a e23c
00000250: 7a9f c0bc da71 1fbc 99ba 42bd bc1c ab3b
00000260: 43b2 46bc 9c05 5abc b734 99bc e66e cd3c
00000270: ebb2 8fbd b580 e8bc ccf5 fbbc f2fb 0a3d
00000280: 5659 22bc 8cca ac3c b5ea 83bc ca31 b23c
00000290: c947 b5ba 7ae5 973c 9060 6bbd c392 dd3c
000002a0: bc30 4bbd 1dea 8abb a9b4 c7ba 57f9 0b3d
000002b0: 4478 0b3a 12e6 ba3a c93d a5bc 666c 07bc
000002c0: 87d3 d63b 788d 323d 369e c43c 26ad 8d3c
000002d0: 000a 28bd 846f 67bd 9fa6 8bbc 964d 78bd
000002e0: c185 c5bc f73a a73c 49e0 6abd 4c8a 673a
000002f0: 5107 2ebd 1fc6 80bc 9fdb 56bc 490d a6bc
00000300: 2d41 14bd 50fd 92bd b1ca 933c 9811 b2bd
-0.015497253 0.0010381113 -0.012677715 -0.025725322 -0.017893752 -0.04433936 -0.037827194 0.025249865
0.020610515 -0.02815262 -0.0063517094 -0.016476067 -0.05634556 -0.051083054 0.0044193086 0.009068556
-0.027924009 0.00049654086 0.0018638188 0.029639516 -0.0077088103 -0.043555725 -0.0063136006 -0.03636883
-0.030007724 -0.078763984 -0.0079995915 -0.007911268 0.0063250638 -0.015588406 0.0128162205 -0.029783865
0.0072749495 -0.014181234 0.013426187 0.020387271 -0.0012940266 -0.030011764 0.020410195 -0.052406132
0.00964009 -0.08887601 -0.036283232 -0.009505038 -0.035493195 -0.045914777 -0.039470352 -0.032998446
-0.013776554 -0.037057422 -0.0126837175 0.022247132 0.008161445 -0.0154007925 -0.046376567 -0.033424556
-0.02430711 0.0010180019 -0.0013848545 -0.03464901 0.019990839 -0.06963507 0.028345099 0.0005718411
-0.0027012106 0.023863696 -0.01007658 -0.019140344 0.0035651333 -0.005991844 -0.0660279 0.017141735
-0.027861439 -0.0031302366 -0.032284167 0.005142714 -0.005906517 -0.015163893 0.015044588 0.005564399
0.028301153 -0.002434465 -0.016598053 0.00032239658 -0.014117515 -0.05390199 0.002130291 0.0045198365
0.00056640286 -0.00952244 -0.08914945 0.006424189 -0.004669168 0.01354816 -0.018892625 -0.02037805
-0.025604336 -0.025114246 -0.035626005 -0.024967743 -0.01050588 -0.032026444 -0.042181622 0.02565405
-0.07857779 0.015772125 0.02597916 -0.009263849 -0.017950458 -0.025436353 -0.014317846 -0.054831605
-0.042093273 -0.03415719 0.029349191 0.019839574 -0.04094377 -0.017158192 -0.030205935 0.011445162
-0.02001372 -0.0022365218 0.01056709 -0.023385994 0.019870613 -0.028362658 0.033605188 -0.0036721563
-0.008619885 -0.008289212 -0.020923305 -0.071988106 -0.057579853 -0.029968703 -0.0341525 -0.04025704
0.016208582 -0.030186487 -0.010328657 -0.07157069 -0.0004693577 0.006095777 -0.041062333 0.013105307
-0.034030844 0.041794214 -0.016950281 0.027600562 -0.023513544 -0.009731734 -0.047541235 0.0052219313
-0.012127462 -0.013307001 -0.018701894 0.025077295 -0.07016548 -0.028381685 -0.030756854 0.03393168
-0.009908995 0.021092676 -0.016103128 0.021752257 -0.0013830598 0.01854204 -0.057465136 0.02704752
-0.049607024 -0.0042393343 -0.0015236336 0.034173336 0.000532035 0.001425924 -0.020171063 -0.00826559
0.0065559777 0.043591946 0.024001222 0.017294478 -0.04102516 -0.056502834 -0.017047225 -0.060620867
-0.02411163 0.020413859 -0.0573428 0.00088325585 -0.042487446 -0.015719471 -0.013113885 -0.020270007
-0.03619497 -0.07177222 0.018040987 -0.08694762

weight f4 [96, 196]
00000000: d241 be3c 290b fd3c 15cf 83bd 9b22 103d
00000010: 2b57 ad3d 52d1 093e 35ed 2e3d 0dd6 243b
00000020: 3441 53bd 0bf9 11bd 1382 133d 69cd 753d
00000030: 3e91 1bbe c219 39bd c82f a1bc d052 99bc
00000040: 7b11 c5bd 30b5 febe aea6 cd3c 606a 06bd
00000050: 8006 e2be e579 8c3d 47dd 3b3d 58b9 183c
00000060: f9d0 51bd 5cdc 9c3b 03cb 5dbd 26a5 a6bd
00000070: 0f7b 8dbd bedd 853d 3819 8c3c 6349 7abe
00000080: efa4 813d 1cd3 30bd 9c66 ae3c 1a05 083f
00000090: 14a5 12bd dd99 443d 57a7 4fbd 6fc1 02bf
000000a0: b2f0 c43c 2396 02be 1990 de3c 6a8f 693b
000000b0: bf15 d7bd 9961 263d 42d4 d9bd 18fb 2cbe
000000c0: fc05 043c 2482 8dbc df21 e53d f707 293e
000000d0: 8176 923d c880 883d 6e0c 273d 6bf1 033e
000000e0: 685b 4f3d e3ac 7cbe 88cb dc3d e794 60bd
000000f0: 9cb4 4dbd cb50 1dbe 518a 60bd 6571 4abe
00000100: 82a9 09bd 1042 c7bc cfef f9bd c9cb 0dbe
00000110: 0f23 cabc 349a 6b3d a958 cd3d 9dab 50b9
00000120: 2865 0bbe b016 d33d 3404 5fbd 4a2c f7bb
00000130: 6c2e dfbc 0f58 27bd 26d2 7ebd 8240 89be
00000140: c2c0 ee3d 490b 1dbf afa0 ac3d 2689 86bd
00000150: a283 153d eb40 ec3d 8bcc 813d 98b0 353d
00000160: 6e08 88bd e986 26bd 5057 233c 3c5a 8abd
00000170: 7e58 1bbd ac1f 58be f800 96bc 6443 0bbe
00000180: 691b 533d 3ba1 0b3e 17af fe3c 710e 0e3d
00000190: f3e7 773d a9eb 2f3c ea88 d4bd 6166 7abc
000001a0: 5dcf 92bc 5b88 293d d61b a2be 0ac6 4e3e
000001b0: fc52 94be dfb6 cf3c 07c0 813e 41d6 3dbd
000001c0: b035 6d3d b05c b7be fa4d 05bd b7d2 ffba
000001d0: 26a7 75bc d43b 0f3c 993d 09bd 65c5 80bd
000001e0: e809 343d d230 07bd cad9 2f3a 0ed8 06be
000001f0: d5ed 993e 4e40 b3bd 830d b03d 1f2c 523d
00000200: a6fd 833d 7c66 a73e 31d7 743d a7b7 c0ba
00000210: 401a 8c3d 1f2a cd3d d205 363e e22c 44bc
00000220: d289 89be da7c 133e 8bfe a0bd e32f 843d
00000230: 956a 933d 3618 933d e87d 983d 4b73 313d
00000240: 700d 3c3e 596e d7b9 7b3a 89bd 2828 9c3d
00000250: 7bce af3b 7373 b2be f9fc 55bc 6509 d8bc
00000260: f0bb 1f3c 8af8 77bd da85 593c 0832 d1bb
00000270: bbcb a43c 7830 83bd dae7 83bd ba1d 77be
00000280: 2378 0d3d 9a6e 3fbd 63a0 233c e386 a13c
00000290: 04c8 6fbd 8606 9cbe 65bd f2be 48eb 55bd
000002a0: 8e06 3fbd fb12 0d3b 1774 b5be 9eb1 7c3d
000002b0: 78ec e9be 9841 3abd 10f6 a7be 526e 86bd
000002c0: f026 873c d377 a1bc d84a 3cbd c924 0fbd
000002d0: 8a5b 16be a427 06be ebc2 babe b90a a03e
000002e0: 5c8b adbc 710c 423c e338 41bd 3baf 89bd
000002f0: 1d5e afbc a037 03bd 6032 9cbe 6917 12be
00000300: a7d7 a53d 5bc2 cf3d c7c9 febc a025 40be
00000310: bfa0 80bd 0717 f63c 24f4 843d 9a62 13bd
00000320: b9e1 da3c c1f8 9ebd f795 0cbd 5567 1b3d
00000330: df26 66bd f036 df3c a92f acbd 5154 3e3d
00000340: d30c 833c a207 c4bc c0d3 9b3d 2545 81bd
00000350: ac76 0abd 2205 96bb 0b16 c53c a3be 5bbd
00000360: 083e 94bd 7635 9abc 71f0 913b c567 fbbc
00000370: 8fe3 07bd 1ea6 a3bd 20db 953b 29f9 48bd
00000380: d7a5 83bd fd00 64bd 045d 683d db43 49bd
00000390: 3464 b5bc 0b86 a2bb bf19 debc f4b6 123d
000003a0: 2364 d2ba 6644 30bd a9af b2bc 3e00 3abc
000003b0: 934a e73c 0afc a6bd c3dc 31bd 4724 ba3c
000003c0: a035 35bc 80b9 c1bd 7cbd 57bd d828 41bd
000003d0: 3cd6 96bd 701a fd3c dc5f a53b bbe1 d7bd
000003e0: 459f 12bc ca9d c1bd 4cbc 1bbd 19b5 dcbc
000003f0: 44f4 f6bc da46 5dbd a24e 3c3d cd7c be3b
0.023224745 0.03088911 -0.06435982 0.035189252 0.084638916 0.13458756 0.042706687 0.0025151998
-0.051575854 -0.035637897 0.03601272 0.060010348 -0.15192124 -0.04519058 -0.019676104 -0.018716246
-0.09622475 -0.4974761 0.025103893 -0.03281629 -0.44145584 0.06859187 0.045865323 0.009321533
-0.051224682 0.004787011 -0.054148685 -0.08136968 -0.06908237 0.065364346 0.017101869 -0.24442057
0.06330287 -0.04317008 0.021289162 0.53132784 -0.035801962 0.047998298 -0.050696697 -0.51076406
0.024040554 -0.12752585 0.02716832 0.003563846 -0.105021946 0.04062042 -0.10636188 -0.1689266
0.008058067 -0.01727397 0.11188101 0.16506945 0.07151509 0.06665188 0.04078334 0.12885062
0.05062428 -0.24675326 0.10781008 -0.054829504 -0.05022107 -0.15362851 -0.05481941 -0.19769819
-0.03360892 -0.024323493 -0.12203943 -0.13847269 -0.02467492 0.057520106 0.10026676 -0.00019900357
-0.13612807 0.10307062 -0.054447368 -0.0075431215 -0.027243815 -0.040855464 -0.062212132 -0.26807028
0.116578594 -0.61345345 0.084290855 -0.06569128 0.036502488 0.115358196 0.063378416 0.044357866
-0.06642233 -0.040656004 0.009969547 -0.06755492 -0.03792619 -0.21105832 -0.018311009 -0.13599926
0.051539812 0.13635723 0.031089349 0.03468174 0.06052394 0.010737338 -0.10377677 -0.015283198
-0.017921144 0.041389804 -0.31661862 0.20192733 -0.28969562 0.025355754 0.25341818 -0.046346907
0.05791253 -0.35812902 -0.032545067 -0.0019517754 -0.014993465 0.0087422915 -0.03350601 -0.0628765
0.04395476 -0.033005543 0.00067081733 -0.13168356 0.30064264 -0.087524995 0.08596327 0.05131161
0.06444864 0.32695377 0.059775535 -0.001470317 0.06840944 0.100177996 0.17775658 -0.0119735915
-0.2686296 0.14403096 -0.0786105 0.06454446 0.07198063 0.07182352 0.0744589 0.043322843
0.18364501 -0.0004109021 -0.067006074 0.07624847 0.0053651906 -0.34853706 -0.013060802 -0.026371667
0.009749398 -0.06053976 0.013276542 -0.006384138 0.020116678 -0.06405729 -0.064407066 -0.24132434
0.0345384 -0.046736337 0.00998697 0.01971764 -0.05854036 -0.30473727 -0.47410122 -0.052226335
-0.04663711 0.0021526206 -0.35440132 0.061692826 -0.45688224 -0.04547271 -0.32804918 -0.06564011
0.016498059 -0.019710457 -0.045969814 -0.03494719 -0.14683357 -0.13101059 -0.36476836 0.3125818
-0.021184616 0.011843787 -0.047173392 -0.06722876 -0.021407181 -0.03203547 -0.30507183 -0.14266743
0.08097773 0.10144492 -0.031102074 -0.18764353 -0.0628066 0.030040277 0.06491879 -0.035982706
0.026718961 -0.0776229 -0.034322705 0.037940342 -0.056189414 0.027247876 -0.08407528 0.04646713
0.015997326 -0.02392942 0.076087475 -0.063120164 -0.03380458 -0.0045782486 0.024058362 -0.053648602
-0.07238394 -0.01882432 0.0044537117 -0.03068913 -0.033176 -0.07990669 0.004573241 -0.049065743
-0.06428116 -0.055665005 0.05672933 -0.049136978 -0.022142507 -0.004959827 -0.027111886 0.03581901
-0.0016051572 -0.04303398 -0.021812277 -0.011352597 0.028233802 -0.081535414 -0.043423425 0.022722377
-0.0110601485 -0.094592094 -0.05267094 -0.047158092 -0.07365081 0.030896395 0.0050468277 -0.105411015
-0.008949106 -0.09453924 -0.03802137 -0.026941823 -0.030145772 -0.054022647 0.045973428 0.0058132173

bias f4 [96]
00000000: b908 463e d23e 86bd a627 aabd aa12 35be
00000010: 217f 31be 7475 86bd 86a7 0abc 8db6 2abe
00000020: 87ee 9ebd 563e db3e 4d82 36be 8e10 4a3e
00000030: e02a ac3d ddab debc 97d6 8fbd 758f 393e
00000040: ccd3 abbe 20d3 863e 2dae 27bd 9eda 123d
00000050: 4e16 ebbd 33e5 debd 1d48 ad3d 114f fabd
00000060: 2815 adbe c193 4e3a fd5a 2ebe 8a9c 1ebe
00000070: dc8e fa3d 078c 06be f11f 803c bf7a 873e
00000080: 6ea4 c6bd b218 273e 3897 e93d 68be c9bb
00000090: 1161 b4bc 76c1 2f3d b24c aa3a 4703 303e
000000a0: 75bb 533d ccaa 863b 3417 943e 8569 053e
000000b0: fb2f 83bd 9b45 55be 9c3b 93be 92e2 fbbd
000000c0: 9820 67bd 381d e73e 5d28 cebc a09a 693d
000000d0: c530 5cbe ff28 1fbe ef49 1b3e 6a5a 2e3e
000000e0: eb6e 1fbd 8e33 243e 494f 96bd acb5 863d
000000f0: e7e0 45be 7414 1ebe 0fa4 163e 51bc 99be
00000100: 2c51 10be 98b9 a2bd b38f 13bd badc f83d
00000110: 1308 80bd 4a50 04be c1f4 9ebd 80f7 1dbe
00000120: 0948 bdbd 05f5 13bd ed74 8abe 31d2 8a3d
00000130: 77bd de3e 808e 87bc de3b 10be 21fa 2dbe
00000140: 8172 a23e 846a d83c 5c40 cabd f7f8 e3bc
00000150: 8a00 60be c4eb 77bd 6471 d2bd 363c b3bd
00000160: f3fb 3abc 87d8 56bc 51d1 b4bd 71bd d2bb
00000170: 8637 1b3d 4227 68be 2e06 033e 9484 203d
0.19339265 -0.06554951 -0.083083436 -0.17682901 -0.17333652 -0.06565371 -0.008462792 -0.166712
-0.07760339 0.42820996 -0.17823143 0.19732878 0.08406615 -0.02718156 -0.07023352 0.18121131
-0.33560026 0.2633295 -0.04093759 0.03585302 -0.11478864 -0.1088356 0.0846102 -0.12222112
-0.33805203 0.00078802934 -0.17026897 -0.15489402 0.122342795 -0.13139354 0.01564023 0.26460835
-0.09699331 0.16318014 0.11405796 -0.0061567314 -0.022018941 0.042909108 0.0012992828 0.1718875
0.051692445 0.004109716 0.28923953 0.13028534 -0.06405636 -0.20827334 -0.28756416 -0.12299074
-0.05642757 0.4513948 -0.025165731 0.057032228 -0.21502979 -0.15542983 0.15164922 0.17026678
-0.03892414 0.16035292 -0.07339341 0.0657762 -0.19324075 -0.1543749 0.14711021 -0.30026487
-0.14093465 -0.079455554 -0.036025714 0.12151475 -0.0625154 -0.12921253 -0.07761527 -0.15426445
-0.09242255 -0.03612234 -0.27042332 0.06778372 0.43503925 -0.016547441 -0.14085338 -0.16989948
0.31727985 0.026417978 -0.09875557 -0.027828677 -0.21875206 -0.060527578 -0.10275534 -0.08751719
-0.011412608 -0.013113148 -0.088289864 -0.0064312746 0.03789475 -0.22671226 0.12795326 0.039188936

weight f4 [64, 96]
00000000: 2c6c 67be 941a 2abd 05f7 d0bd 310a 67be
00000010: 709f 0abc d716 2abd a754 7dbd d439 1bbc
00000020: 5f33 e93c 1128 6fbe fbfc 6a3c 6c96 103e
00000030: f238 593d 829d 983d 7afd 25be ac65 28bc
00000040: 94d5 89bd 89f1 3ebc f211 75bb 43c4 73bd
00000050: 9c64 9cbc de64 b83c a58e 91bd 3918 60be
00000060: f049 28be 5010 bbbc 4831 04be 9cda fd3d
00000070: f034 27be 3646 8ebd 8ddd 34bc bcf2 e23d
00000080: daa6 b03d fd80 30be 3fa7 16be a171 073e
00000090: f079 d6bb 406a a53c d577 1cbe a644 6abd
000000a0: 4bb9 e4be c7f3 9dbd 3702 99be f07d e0be
000000b0: 3b87 523e a278 913b ee94 d63a 3aa0 8a3d
000000c0: c9b1 43be ff58 36be 61be b4bd cae0 39bd
000000d0: b2a5 59be 23d4 15bd ee43 a6bd b328 58be
000000e0: 7662 08bd d422 97be b593 ad3d 3881 cf3d
000000f0: b0c0 c73d f85d 363d b105 eb3c 3523 36be
00000100: b0ca 9cbe 64ee 18bd c1ba 563d c1af 0abe
00000110: 3d3c 05be f6d4 b13d c0bc 083c 29ce dabb
00000120: a7a7 82be eb67 39bd c622 bebd 4c8b 003e
00000130: 1c27 1abc 92b7 d3bd aa90 90be 3ea9 34bd
00000140: 8e29 663d 5b85 20be 150b ab3b d047 40bd
00000150: 16ab 85be ca81 36bd a331 83bd c071 bfbd
00000160: d05d 943c b610 473e da33 063c 6f48 19bd
00000170: 86c7 14be 0f4e 44be 5574 cdbe c131 643c
00000180: 4809 2c3d 3844 96bd c75f 573e c6e2 20be
00000190: ef91 74bd 21b3 33be 320d cc3d 7541 343e
000001a0: c2e3 573e 5f79 73bd 58ad 27be 4e70 96bd
000001b0: 097d a13d 2d2b 0bbd a004 ee3d 8cc3 eb3d
000001c0: ac4a ccbe 33fb 08be 40a5 5bbe 9abc b2be
000001d0: 58dd d03d 8c19 7dbd de42 a4bd 8b22 933d
000001e0: f667 a8be 0ae6 a4bc e1bd eebd 3980 a0be
000001f0: 758a d23d 7bd2 bf3d 7c8c 2bbe e22c 333e
00000200: d70f 2f3e 2b9f 46be 11b0 cb3d c005 efbc
00000210: 004a 88bd de87 b4be 843d 0ebe b736 963e
00000220: 79b7 1dbe 5560 9fbe 1656 b93d be85 b13d
00000230: beb6 203e e4b6 6cbd cd17 153c 535c cebd
00000240: efeb 643d 4601 80be 372f c83a f25c 41bd
00000250: e8d2 8fbd 9533 1e3d 860f f0bd 1568 da3c
00000260: 31b5 86bd 31a9 64be 364b 553d 2de9 80bd
00000270: cd95 e6be 65a1 5ebd 22a9 9c3d 7c8f a23d
00000280: efba b23d b646 443b 6a82 ba3d 644b ecbd
00000290: 3f5b 1ebd 9b68 76bd 6535 56b9 76b5 52be
000002a0: 35c6 0c3d 6c90 75bd b5fb 833d 0ee3 c1bd
000002b0: 30d3 463e 61d6 07be 19ef 42be 5544 64bd
000002c0: c966 a4bd 9cf7 2c3e 300e d4bd 49af 993d
000002d0: 639d 46be e448 7b3e 9ee6 983d c332 1bbd
000002e0: 9d5a ca3c 7dc5 91bd a7bd 66bb c811 4b3d
000002f0: c0c9 71be fa0b 0ebb 2655 2bbd 6cde b6be
00000300: c543 08bd 8b2b 66bd 3faf 8fbd a5cc a8bc
00000310: 4b4d a8bd 4f8d 6abc 841a 83bd 78f1 90bd
00000320: 5f48 a73c 9f2d d2bd 89df 48bd ac37 a8bd
00000330: d2d7 863d 1e9a 9f3d e5f1 ccbd bc48 fd3c
00000340: 2c5d 10be 8e33 2abc 4a6c 85bd f2c0 04be
00000350: 7609 d1bc e0b6 d5bd fa01 86bd 5480 613d
00000360: 869d 9cbd 2264 043d e984 99bd 11fe 6ebd
00000370: e7a0 0c3c 94c7 91bd 6645 4c3c ae97 08bd
00000380: 2b00 debd 1a1a 3abe c29d 56bb 25ad c03b
00000390: ccb9 7f3d 73f8 cdbd ac35 70bd 79cb 5d3b
000003a0: 825e b7bc 3d4e f9bc b993 23be a452 eabc
000003b0: 8376 96bb 35f3 78bd e5d9 f8bd 5f03 abbd
000003c0: c133 f03b 57dd 0f3d 669c 0abe 412c 7e3d
000003d0: 5400 febc 9f6e c4bd c702 89bd 14fc 80bd
000003e0: c5a4 323d 0cce d3bd fab9 8b3d 6cd5 31be
000003f0: c256 5ebd b109 95bd ace6 c2bd bf9a 3abd
-0.22599858 -0.041529253 -0.10203365 -0.22562481 -0.008460864 -0.041525688 -0.06184831 -0.0094742365
0.028466878 -0.23355128 0.014342542 0.14119881 0.053032823 0.07451917 -0.16209975 -0.010278147
-0.0673019 -0.011654266 -0.003739473 -0.05951334 -0.019090943 0.022509035 -0.071072854 -0.2188424
-0.16434455 -0.022834927 -0.12909424 0.12395212 -0.16328788 -0.069469854 -0.01103915 0.11081454
0.086255744 -0.17236705 -0.14712237 0.1322694 -0.006545298 0.020192266 -0.15280087 -0.057194375
-0.44672617 -0.077125125 -0.29884502 -0.43846083 0.20559399 0.0044394294 0.0016371289 0.06768842
-0.19110788 -0.17807387 -0.088253744 -0.04538039 -0.21254614 -0.036579262 -0.08118425 -0.21109276
-0.033297025 -0.2951876 0.084754385 0.101320684 0.09753549 0.04452321 0.028689237 -0.17786868
-0.30623388 -0.037336722 0.052424196 -0.13543607 -0.1301126 0.08683197 0.008345783 -0.0066774082
-0.25518534 -0.04526512 -0.09283976 0.12553138 -0.009408738 -0.10337748 -0.2823537 -0.044106714
0.056191973 -0.15675871 0.005219827 -0.046943486 -0.2610709 -0.04455737 -0.06405952 -0.09347868
0.01811114 0.19439968 0.008191073 -0.037422594 -0.14529237 -0.19170402 -0.40127817 0.013927878
0.04200104 -0.073372304 0.2103263 -0.15711507 -0.059709486 -0.17548801 0.09963454 0.17603095
0.21082976 -0.05944192 -0.16374719 -0.07345639 0.07885177 -0.033976723 0.11621976 0.11511907
-0.3990072 -0.13377075 -0.21449757 -0.34909517 0.10198468 -0.06179194 -0.080205664 0.07184323
-0.32891816 -0.020129222 -0.1165731 -0.31347826 0.10280315 0.09366318 -0.1675281 0.1749759
0.17095886 -0.19396655 0.099456914 -0.029177547 -0.066547394 -0.35259908 -0.13890654 0.2933862
-0.1540202 -0.31128183 0.09049623 0.086680874 0.1569471 -0.057791606 0.009099913 -0.10076203
0.055889066 -0.25000972 0.001527286 -0.04720778 -0.07022649 0.03862341 -0.11721711 0.026660958
-0.06577528 -0.22330166 0.05207368 -0.06294475 -0.45036164 -0.054353137 0.07649447 0.07937524
0.08727061 0.0029949374 0.09106906 -0.11537817 -0.038661238 -0.060158353 -0.00020428521 -0.20577034
0.034368712 -0.059952185 0.06444494 -0.09467135 0.19416499 -0.13265373 -0.19036521 -0.05572923
-0.08027417 0.1689133 -0.103542686 0.07504136 -0.19395976 0.24539524 0.07465862 -0.037890207
0.02470141 -0.07117746 -0.0035208256 0.049577504 -0.23612118 -0.002167462 -0.04182925 -0.3571657
-0.033267755 -0.05619387 -0.070158474 -0.020605395 -0.082178675 -0.014315917 -0.06401542 -0.070773065
0.020420251 -0.10262608 -0.049041305 -0.082137436 0.06584133 0.077930674 -0.10007075 0.030918472
-0.14098042 -0.010388268 -0.06514795 -0.12964228 -0.025517207 -0.10435271 -0.06543346 0.055054024
-0.07647233 0.032322057 -0.07496054 -0.058347765 0.008583284 -0.07118145 0.012467718 -0.033347778
-0.10839876 -0.1817402 -0.003274784 0.0058800154 0.06243305 -0.100571536 -0.058644935 0.0033843203
-0.022383932 -0.030432815 -0.1597432 -0.02860386 -0.0045917644 -0.060778815 -0.12150935 -0.08350252
0.0073303883 0.035123195 -0.13536224 0.062053923 -0.031006016 -0.09591412 -0.06689983 -0.0629808
0.043614168 -0.10342035 0.068225816 -0.1736657 -0.054281957 -0.07277239 -0.095166534 -0.045557734

bias f4 [64]
00000000: 160d 0cbe 5ec9 e83d 73eb e5bd 963c 5fbc
00000010: d71a 8ebd 656b 0cbe 133d 5dbe c5ab 3abe
00000020: e590 8f3e b92d 4c3e 6552 ca3e 00b3 3e3e
00000030: 8461 e5bd 97dd 97bd 7c79 0abe 3ded 53be
00000040: 3d3e 41be 325c cfbd 0252 f33e b40e dbbc
00000050: a348 cb3d 7c21 debc 29d8 3abd 3c4a 91be
00000060: 1541 3bbe e583 55be a4e6 3cbd e529 ffbd
00000070: b071 a6be e643 04be f855 e23e 1a2a 3bbe
00000080: 487a 033e 6d43 c43d 917f 603e d3ce 78bd
00000090: 35b8 60bd 9af3 50be dcc0 9b3d c4e1 5a3e
000000a0: c913 533d 02ba 183f a21b d93d f8ff 33be
000000b0: efea 96be 6f0d 403c 5986 863e cab1 50bd
000000c0: a0fb d1bd 3383 ecbe 7f1b a83d d7a1 953e
000000d0: 33ff 6cbe 9862 4cbe 7264 b03d b4dd 38bd
000000e0: c013 d53d 0da3 5bbe 4acf 913e 71f8 dcbd
000000f0: 3e10 363e 7dae 1abe f421 fdbd f543 25bd
-0.13676867 0.11366533 -0.11226549 -0.013625285 -0.06938713 -0.13712843 -0.21605329 -0.18229587
0.28040233 0.19939317 0.39515987 0.1862297 -0.1120024 -0.07415312 -0.13522905 -0.20695968
-0.18871398 -0.10125007 0.47523504 -0.02674041 0.09925964 -0.027115576 -0.045616303 -0.2837695
-0.18286546 -0.20851095 -0.046118394 -0.124591626 -0.32508612 -0.12916526 0.44206214 -0.18277779
0.12839615 0.09583173 0.21923663 -0.060744118 -0.054863174 -0.20405427 0.076051444 0.21375185
0.05153254 0.59658825 0.10600974 -0.17578113 -0.29476115 0.011721953 0.26274374 -0.050950803
-0.10253072 -0.46193847 0.082083695 0.29225037 -0.23144226 -0.19959486 0.086129084 -0.045133308
0.10404158 -0.21448918 0.28478462 -0.10789574 0.17779633 -0.15105624 -0.12359992 -0.040348012

weight f4 [10, 64]
00000000: a676 16bc b609 183e e956 fbbd a09e 88be
00000010: c5a4 b1bb f0b8 61be 45c4 aa3d 5203 3ebd
00000020: 0b2f e0bd d141 853b 8e72 2ebe 763a d13d
00000030: 1943 6bbe 6fa7 4bbc 1ff6 f0bd 0b91 553d
00000040: a84c 0f3d 3e78 abbd dd59 b93d 8296 32bd
00000050: d803 47be 887c 70be d2bd cb3d c80b db3d
00000060: 5dcc 35be 8b7e e83d 39b1 bfbd e741 03be
00000070: 31ad 6dbe 85d0 5cbd f56c 8cbe 3596 86be
00000080: dc67 d3be a321 ad3d 5f31 833b c0ce ea3c
00000090: 90e5 09be de1d 2fbe 75f1 26bd af6a 373e
000000a0: 0bce db3d 33f7 1ebe 7047 41bd 82cb a8be
000000b0: 5e4c bcbe 55c8 9f3c b3bf 96be c78d 78bd
000000c0: e24f dbbd 6565 4ebe cb3a 4dbe d986 963d
000000d0: 21ea abbe 24a6 bd3c 0092 f83d 64b1 29be
000000e0: cf16 f1bd 8303 393d 077a 08be 78a9 10bd
000000f0: 76c3 87be 5e17 2e3d abba acbd e598 b1be
00000100: 4096 67bd 5b47 0cbe b3a2 90bc 15c6 fabd
00000110: 7513 0f3e a20d 9b3d 8608 08be a6aa dbbc
00000120: 309f 9dbd 19c3 64be 25a5 023d 5559 51be
00000130: 76e8 39be c9ca a5be dd6b 29be 3632 0d3e
00000140: 87ae 69bd 4926 fe3b 8b10 a03d e6a8 8bbd
00000150: 6463 b3bd 6814 cabd c708 033c 26a1 b3be
00000160: 2b09 a9be fade 91be bc6c 65be 65ac 923d
00000170: eb4a 653d 418d cd3d fde4 3cbe 06bf 5b3e
00000180: dbad 9ebd b728 adbd 1918 a83d ebc0 3dbe
00000190: 8957 603d 3f84 e4bd 1fc6 77bd adb7 733d
000001a0: a1a1 52be 4551 bdbe 0879 933d 4fd2 3b3e
000001b0: d72e 0ebe bf7e b0be 3504 4fbe 10d6 31be
000001c0: fa9d 403d 10d3 c33d 846a 15be cc72 a2be
000001d0: f308 9fbd c683 b23d 391b 043e f569 08be
000001e0: 1125 443d 10c2 dfbc e377 9dbe 25d9 8fbd
000001f0: 5d86 853c 3716 11be cdbc 333c 4925 063e
00000200: f553 e1bd 31a9 44be d0f6 3abe dabd 43be
00000210: 5cc8 a2be 806d 1a3e 03dc 713c 5dd2 8dbe
00000220: cb06 05bd 974d 60be 05b5 a8bd 17f7 b43d
00000230: aee8 09be 4aba 413d cae3 ffbd 7aa9 15bd
00000240: c283 3d3d 426b 0e3c dad2 593d 6348 b83c
00000250: 9d03 c33d eccd 52be 218c e43d 3bb1 bbbd
00000260: 7f50 06be 0e41 75be 4e79 8fbd 26c5 55ba
00000270: 2e93 083e 21c8 833d bb97 d5bd df9c a03d
00000280: 255d a3bd 898c 75bb 4642 023e d2d6 283d
00000290: 087b 983d 7e72 133d 4fde 4dbb 7842 4cbe
000002a0: f96e 973c 379d 8fbe a0b0 2abe ceff 9abc
000002b0: bf52 2d3e 4448 243e 0b3a b53b 926f 88bd
000002c0: 219d fe3d 122d cf3d ce51 913d a3c4 8e3d
000002d0: 73a0 d23d a791 d4bd f2ba 97bd 6872 59be
000002e0: efe2 683d 1545 433d f187 12be 8e71 b6bd
000002f0: fd98 b2bc 9041 b1bc bfc3 c9ba a2d9 a7be
00000300: 9cdf a2be 3dbf 09be f0a3 57bd ff36 b6bd
00000310: 3e85 c0bd b2c2 443d 8401 873d ccf6 163d
00000320: a622 86bc 3c6d 2cbe 8ced d53d 1da4 17be
00000330: 9ff4 42be ca4b f33d 3639 913a 0d3a 3dbe
00000340: 71df 80bd 14d7 523d 32f5 37bd ae53 e93c
00000350: 2062 c6bd 5bc1 28be 61b9 543d bf7d 88be
00000360: 7a8e 78be d2a3 05bc 8dc1 f73d c7d0 243c
00000370: 20aa 1abd 80ee 7e3d 50c1 223d 2b9b 70bd
00000380: 1999 d23d df89 b9bc c0c0 97bc 4cd9 c63d
00000390: 9030 fabd 9751 ffbd 7abc 32be b054 9dbe
000003a0: c008 4ebe ecd8 643d 19f1 b8be 0f2d 80be
000003b0: 7bed 41bd 3ed6 fabd b7f0 413c 1318 1bbe
000003c0: 346e e23d 5fd7 a53d 5933 25bd a467 673d
000003d0: bd86 e73c 629d 13be b2b7 3ebe cd49 6a3d
000003e0: 0f0d 4abc 0077 df3c cf04 9abe 28bc c23c
000003f0: d0bb b0be d8b2 51be 99e7 3e3b eb90 8c3d
-0.009183561 0.14847454 -0.12272436 -0.2668352 -0.0054212534 -0.22043204 0.08338217 -0.046389885
-0.10946473 0.004066684 -0.17035887 0.10216229 -0.22974814 -0.012430056 -0.11765694 0.052140277
0.034985214 -0.08372544 0.09050343 -0.043600567 -0.1943506 -0.23485005 0.09948315 0.106956065
-0.1775374 0.11352261 -0.093599744 -0.12818108 -0.23210599 -0.053909797 -0.27426878 -0.26286474
-0.41290176 0.08453681 0.004003688 0.02866304 -0.13466477 -0.17101237 -0.040757615 0.1791179
0.10732659 -0.15523987 -0.04718727 -0.32967764 -0.36777014 0.019504705 -0.2944313 -0.060682084
-0.10708596 -0.20155866 -0.20041959 0.07349939 -0.33577064 0.023150511 0.12137222 -0.16571575
-0.117719285 0.045169365 -0.133278 -0.035317868 -0.26516312 0.042502753 -0.084340416 -0.34686962
-0.056539774 -0.13699095 -0.017655706 -0.122448124 0.13972266 0.0757096 -0.13284501 -0.02681477
-0.07696378 -0.22340049 0.031895775 -0.20444234 -0.18155083 -0.32381275 -0.16545053 0.13788685
-0.057051208 0.007756029 0.07815655 -0.06819324 -0.08759192 -0.098671734 0.007997698 -0.35083884
-0.33014807 -0.2849043 -0.2240476 0.07161788 0.05597965 0.10036708 -0.18446727 0.21459588
-0.07748004 -0.08455031 0.08207721 -0.18530624 0.05477098 -0.111580364 -0.060491677 0.05950134
-0.20569469 -0.36976066 0.07200819 0.18341945 -0.13885055 -0.344717 -0.20216449 -0.17366815
0.04702566 0.09561741 -0.14591414 -0.31728208 -0.07765379 0.0871654 0.1290101 -0.1332167
0.04788691 -0.027314216 -0.3075553 -0.07023839 0.016299421 -0.1416863 0.010970307 0.1310016
-0.11002342 -0.19205166 -0.18258214 -0.19115391 -0.31793487 0.15080833 0.014761928 -0.27699557
-0.03247718 -0.21904598 -0.08237652 0.08836191 -0.13467667 0.0472968 -0.12494619 -0.03653858
0.046268232 0.008692564 0.0531796 0.022495454 0.095221736 -0.20586365 0.1115954 -0.091646634
-0.13116644 -0.23950598 -0.07005559 -0.00081546826 0.13337395 0.06434656 -0.10429331 0.07842421
-0.0797675 -0.0037467799 0.12720594 0.041220494 0.07445341 0.03599786 -0.0031413024 -0.19947231
0.018485533 -0.28049633 -0.1666894 -0.018920805 0.16926096 0.16043192 0.005530601 -0.06661905
0.12432314 0.10116018 0.07095681 0.06971099 0.102845095 -0.103793435 -0.07408704 -0.21235049
0.056857046 0.047673304 -0.1430967 -0.089083776 -0.021801466 -0.021637708 -0.001539342 -0.32783228
-0.31811225 -0.13451858 -0.052646577 -0.088972084 -0.09400414 0.04803724 0.06592086 0.036856458
-0.016373944 -0.16838545 0.10445699 -0.14808698 -0.19038628 0.1187969 0.0011079672 -0.18479176
-0.06292618 0.051474646 -0.04491157 0.028482284 -0.096866846 -0.1648001 0.051934604 -0.26658437
-0.242731 -0.008156734 0.12097464 0.010059542 -0.0377599 0.06223917 0.03973514 -0.05874173
0.10283107 -0.02264875 -0.018524528 0.09709415 -0.12216294 -0.12466734 -0.1745471 -0.30728674
-0.20120525 0.055870935 -0.36121443 -0.25034377 -0.04734562 -0.12247895 0.011837176 -0.15145902
0.11056176 0.080977194 -0.040332172 0.056495324 0.02826249 -0.14415506 -0.18624762 0.05719929
-0.012332215 0.027278423 -0.30081794 0.02377136 -0.3451829 -0.2047838 0.0029129742 0.068635784

bias f4 [10]
00000000: b9d3 74bd ccd9 5fbe c726 3ebe d263 d5bd
00000010: c29f 1d3b de50 7cbd 563a f1bd 23fb 4dbe
00000020: 9eee 153f 47f3 a63d
-0.059772227 -0.21860427 -0.1856948 -0.1041943 0.0024051522 -0.06160056 -0.11778705 -0.20115332
0.58567226 0.0815187
