neural_net_mnist_MultiMarginLoss.pth.tar (torch, 723612 bytes, 8 tensors)

weight f4 [196, 784]
00000000: 2e98 b53c b940 4d3c cf89 a53c 8e90 82bb
00000010: 97c1 e3bc 25fe 793b f315 5cbc 292f b5bc
00000020: b34a c63b b84d eebc c725 f5bc 14a7 af3c
00000030: e617 053c 08c3 083d d537 103c 64e0 bf3c
00000040: 8532 b3bc 2e1e 6d3c ce17 16bc 636d 97bb
00000050: 7ac9 e43c b260 24bc 98fd 31bc 930e b1bc
00000060: c9e7 e13c b812 febc 2516 aaba e4f7 be3c
00000070: 072a ce3c 647d b93c 4b2a d43c ec02 b13c
00000080: 7304 d1bc eecd 893b 0906 a2bc ee75 1c3c
00000090: ec16 3c3c 4ece 8cbb 7b15 98bc cff1 6f3a
000000a0: 96b3 783b c687 98bc e4d8 12bc 2ad7 07bd
000000b0: 0c26 abbb cb58 b2bc c7f7 b5ba 4913 d5bc
000000c0: 1f56 2d3c ccf3 8ebb 4087 093c 66a3 59bb
000000d0: 3ae9 893c 8f3b 563c 8b0f 903c 6c59 ec3c
000000e0: 0a22 a63a 0db5 89bc 8398 8abc cb75 2ebc
000000f0: 4ef1 9bbc 4a64 693c 654c cb3b d671 e33b
00000100: 3f55 afbb c3f8 2c3a d0b1 023d 81c7 41bc
00000110: 3b8b b2bc fbf6 1b3b ab7d 93bc fcc2 ad3b
00000120: ffd8 403c 00ba a4bc c6a4 20bb 4306 90bc
00000130: ac43 aebc dd66 1b3c 708a 663c f49c 11bd
00000140: 29c8 953c dff8 013d 026e 0bbd 68c4 e339
00000150: fb86 9ebc 885e e4bb 35ca c73c aef9 febc
00000160: 1cc6 f33c 25c6 fa3c 62ab 97b8 d85f e5bc
00000170: e31f 46bd 92a5 a33c 1a76 eb3d e33b 6b3d
00000180: 71bf 52bd 3794 4f3a 52c6 e73a 6e0a 9abd
00000190: 12e4 e6bc a1a3 013c 0fdd a2bc 4e5b 113d
000001a0: 33c0 393d 49de e63c c414 743c c7c4 9b3b
000001b0: 2673 ce3b 0df7 03bd 088d 7dbc 6968 e13c
000001c0: 331d a93c c1eb 7b3c 8ea7 13bd eb4c 913c
000001d0: 0f5a dbbb 7d27 033c 3246 89bd 431d 33bd
000001e0: 49d9 59bc 01e3 e43d 84fb 403e 18ee 943d
000001f0: 5998 b2bc 7984 23be 9bcf a0be 8bce 55be
00000200: 3c18 01be a19a 91bd 2f64 d9bb cc36 9a3d
00000210: 0e39 503d 4979 d83d 886d f23d cfee 9d3c
00000220: 7f24 e73c c78b 1c3c 6b03 fcbc e4e1 e93b
00000230: c418 e63c 6f87 d33c 3e03 173c a65d 2dbd
00000240: 4d24 15bd 2f88 bcbc eab6 5c3c 0cbc 093e
00000250: 09ff a43e 7419 103f 1a60 1f3f f9c3 bc3e
00000260: 9070 4ebe da79 38bf 440d 3abf a4b6 01bf
00000270: 7fc0 cabd 523b fe3d ab9e 1c3e 2f30 0a3d
00000280: bce7 673d e464 d33d 3d56 0f3e 7cd0 c53d
00000290: fe1e 013d cac3 b93c 3988 053d 8cfd 953b
000002a0: 805b 243c 640c 07bd b791 c1bc 47d9 3bbc
000002b0: a8be aabd 5b35 593d a95c b1bb 6a9b 243e
000002c0: 3590 ae3e b450 2a3f 0b3e cd3e bb99 233d
000002d0: fd15 07bf f40b 7ebf b95e 60bf dd81 71be
000002e0: 6fd6 ca3d 3ccd 3a3e a5fd 613e 2e01 633e
000002f0: fd45 1b3e 57ef fe3d d148 2e3e 3558 053e
00000300: e236 5a3d 492f 0f3d b0b5 07bc a6b1 f03c
00000310: 7f6b 103c c23c f23a 4adf ca3c b8e1 c7bc
00000320: c109 0dbe 98d3 4f3d 4f8c 873c 2a68 803e
00000330: 0354 843e 5b1c e63e 339f 9f3e cd09 5c3d
00000340: 2ba4 b4be e12a 8ebf 1e29 3ebf 9b70 1d3d
00000350: ef4d 0d3f b43e e83e 84b9 d43e 9b5a 7d3e
00000360: ed22 c93d 215d 5c3d a743 a03d bf7e 553d
00000370: c3fe 433d 7359 a5bc bae8 b03c 58f1 5f3a
00000380: 6ce7 e7bc ec92 5dbc 2d59 0cbb da1c 03bd
00000390: 94b1 82bd bee0 e73d f1a6 36bc 5a23 e53a
000003a0: ab6d b23d efd0 0a3f 7cbc 183f 4bcb 2f3e
000003b0: 4b95 fcbe cdfe 8fbf 2c9f 2ebf c377 80bb
000003c0: 0aff 6f3e 7d4f 833e eb88 4d3e 28a6 51be
000003d0: 72ac 643c 7b0e e63d 0f64 8ebc 12ef cfbc
000003e0: 607c 133d c832 453d 526e 64bb 8520 2e3a
000003f0: 83bf 8abc fa9b 30bc 79f7 323c 2a31 34bd
0.022167291 0.012527638 0.020207314 -0.0039845174 -0.027802272 0.0038145867 -0.0134329675 -0.022117214
0.0060513853 -0.029089794 -0.02992524 0.021441974 0.008123374 0.03338912 0.008802374 0.023422427
-0.021874676 0.014472527 -0.009160949 -0.004621194 0.027928103 -0.01003282 -0.010863684 -0.021613395
0.027576344 -0.031014785 -0.001297657 0.023311563 0.025166525 0.022642799 0.025899073 0.021607839
-0.025514817 0.004205457 -0.019778268 0.009549601 0.011480074 -0.0042970544 -0.01856493 0.0009153159
0.0037948838 -0.01861943 -0.008962844 -0.03316418 -0.0052230414 -0.021770855 -0.0013883048 -0.026010172
0.010579615 -0.004362559 0.0083940625 -0.0033208965 0.016834844 0.013075723 0.017585536 0.028851233
0.0012674939 -0.016809965 -0.016918426 -0.010648201 -0.019035961 0.014245102 0.0062041753 0.0069410605
-0.0053507383 0.00065983477 0.031907856 -0.011827351 -0.021794906 0.0023798335 -0.01800426 0.005302785
0.011770486 -0.020108223 -0.0024512275 -0.01758111 -0.021272503 0.009484974 0.014071092 -0.035550073
0.01828392 0.031731483 -0.03404046 0.00043443148 -0.019351473 -0.006969277 0.024388412 -0.031124916
0.029757552 0.03061206 -7.2321636e-05 -0.027999803 -0.048370253 0.019976411 0.114971355 0.05743016
-0.051452104 0.0007918509 0.0017683005 -0.075215206 -0.028184924 0.007912547 -0.0198808 0.035487466
0.04534931 0.028182166 0.014897529 0.0047536823 0.006300348 -0.032218028 -0.015475519 0.027515607
0.020643806 0.015376032 -0.036048464 0.017736873 -0.0066940854 0.00800502 -0.06702842 -0.043729078
-0.013296434 0.1117611 0.18845946 0.07271975 -0.02180116 -0.15968503 -0.3140839 -0.20879571
-0.12606901 -0.07109571 -0.0066342573 0.07529983 0.05083566 0.10570008 0.11837298 0.019278912
0.028215645 0.00955481 -0.030763349 0.007137524 0.028087981 0.025821416 0.009217082 -0.04232564
-0.036411572 -0.023014156 0.0134713445 0.1345064 0.32225826 0.5628884 0.62256014 0.36868265
-0.20160127 -0.7206093 -0.7267649 -0.5066931 -0.09899997 0.12413658 0.15294902 0.033737358
0.056617483 0.10321978 0.13997741 0.09658906 0.031523697 0.022676367 0.032600615 0.0045773443
0.010031581 -0.0329708 -0.023629053 -0.011465377 -0.08337146 0.0530294 -0.0054126573 0.16074911
0.34094396 0.66529393 0.40086398 0.03994153 -0.52767926 -0.9923699 -0.87644535 -0.23584695
0.09904181 0.18242353 0.22069414 0.22168419 0.15163417 0.12447994 0.17019965 0.1302193
0.053274997 0.034957204 -0.008283064 0.029381584 0.008814692 0.0018481242 0.024764676 -0.024399623
-0.13773252 0.0507389 0.016546397 0.2507947 0.25845346 0.44943509 0.31176147 0.053720284
-0.352815 -1.1106836 -0.7428149 0.038437467 0.5519704 0.4536034 0.41547787 0.24741594
0.09821115 0.053799752 0.07825404 0.052122828 0.04785038 -0.020184254 0.021595348 0.0008542738
-0.028308593 -0.013523798 -0.0021415458 -0.032009937 -0.063815266 0.11322163 -0.0111482 0.0017481849
0.08712324 0.5422506 0.59662604 0.17167394 -0.49332651 -1.1249634 -0.68211627 -0.0039205267
0.23437133 0.25646582 0.20071761 -0.2047354 0.01395713 0.11233231 -0.017381696 -0.025382552
0.036007285 0.048144132 -0.0034855795 0.0006642419 -0.016937023 -0.010779375 0.01092326 -0.0439922

bias f4 [196]
00000000: d5bf 123d bd3a 02bd 03a5 d4bc efa8 f03b
00000010: 677b 81bd 824c a9b6 c62a a8bc 2e1c 9f3c
00000020: 017c 6ebd dbb6 48bb 2d7b 8dbd 7de4 b7bc
00000030: bd80 16bc cc0f 73bc 2119 fd3b 3894 1cbd
00000040: 71bb bf3c 6581 8d3b a987 11bd 1a40 9dbc
00000050: 5e44 8bbd 0223 2ebd e894 1ebd 5f30 61bd
00000060: 3c7b 97bc 808f 0cbd c852 26bb c128 11bd
00000070: bf68 e1bc f443 233c fd96 33bd ab7c f6bc
00000080: c376 bcbc 3a59 54bc 72cd 8a3c 5060 a13b
00000090: c0e0 053b 1b68 71bd 5467 94bd f711 dd3c
000000a0: 7977 9dbd caae 83bc 5d7c 26bb 6abd 983c
000000b0: a8e3 bf3c 8739 423c 6544 ab3c f314 40bc
000000c0: ddea 18bd 7c76 2abd 6ab9 dfbc dc9b 753c
000000d0: ee75 163d b3c7 d53b 6488 1d3d efa2 fbbb
000000e0: d7b3 0fbd 926b 0ebd b2ac 2cbc a0b3 fe3b
000000f0: 6a88 86bd c934 f5bc 95ee 7bbd 4b9d 00bd
00000100: 8d91 8fbc ce4c ca3c c627 9bbc 4472 a4bc
00000110: dcee 85bd 86b0 53bc 46de b2bb 200e dabc
00000120: e80a 1ebd 3903 3ebc 5a0b a63c e77f 07bd
00000130: ff39 a2bb 3683 6fbc 2a89 9d3b 7294 c0bc
00000140: 982d 533c 51ec 8dbd e6d9 84bd 6774 14bd
00000150: ae76 6b3c 9aa2 df3c 28ab 9dbb 52f9 86bc
00000160: 9e82 30bc 3c83 bd3c d9f3 58bd 24c2 16bd
00000170: 38ba 03bc e436 14bc 543a c8bc 5759 debc
00000180: c9fc 72ba 9a79 b1bc 9838 a13c c1c2 65bd
00000190: 5028 d1bb bf3a e33c 038f bc3b 7f63 43bb
000001a0: 3db7 6fbb bd02 0abd a1e3 14bb 9115 75bd
000001b0: d2f6 82bc 781c 813c 4328 22bc 6bff efbc
000001c0: cdba 013d e32c a1bc d0ed 78bc eed9 883c
000001d0: 83dd 133c c94d 6c3c df96 c1bc 86e6 083c
000001e0: f120 1ebc dc2f 70bd 8610 91bd 2983 fabc
000001f0: 2741 3abd 9a38 513c 9c0a 373c d0d4 dc3c
00000200: 0f1d 95bc 53fc eabc fc3e 7d3c e904 05bd
00000210: 438b bbbb e20d 08bd 3960 c6bc 87cb 33bc
00000220: b05a a83c fdb9 0abd b1d7 85bd 7f47 d6bb
00000230: 5f3a a2bd d52c 1cbd 352d 543c 11b8 30bc
00000240: bd07 403c 1969 4ebd 1603 d53c 4062 ca3a
00000250: 942f d2bc 54cf 5cbc 1dfb f3bc 3045 9cbc
00000260: 62a5 5c3c 7393 4ebd 89a4 98bc 2239 debc
00000270: 90d6 fcbc e246 95bc e2a6 19bd 158d 2fbc
00000280: a047 863c 1812 46bc 750c d4bc 5404 a2bd
00000290: c1d0 1cbc 88a3 cdbc 9edc 17bd 305c ef3c
000002a0: d074 99bc 7858 3abc 64c4 56bb bed5 17bd
000002b0: 935f 89ba d6ed 62bd 7997 d5bc 896a 02bd
000002c0: d773 bdba 273a 903c 0a79 c7bc 4f9d 1fbc
000002d0: d84b c0bc 5572 babc 7113 59bc 17bb 8d3b
000002e0: 7824 f5bc b35d f2bc 6789 bbbc b885 16bd
000002f0: 7d1d c9bc bd4e e7bc b406 3abc 3618 1ebd
00000300: ffdd 17bd 8564 99bc 6afc 0bbd 43fb a0bd
0.035827477 -0.0317943 -0.02595759 0.007344357 -0.06322365 -5.045499e-06 -0.020528208 0.019422617
-0.058223728 -0.0030626568 -0.069082595 -0.022447819 -0.009185967 -0.014835309 0.007723943 -0.03822729
0.023404809 0.0043184035 -0.035529766 -0.019195605 -0.068001494 -0.042513855 -0.038716227 -0.05497777
-0.01849138 -0.03431654 -0.0025378931 -0.035439257 -0.027515767 0.009964932 -0.043845166 -0.030088743
-0.023005849 -0.012960726 0.016943667 0.0049248114 0.002042815 -0.058937173 -0.07246271 0.026986105
-0.07688803 -0.016074557 -0.0025403716 0.018645007 0.023423985 0.011854536 0.020906636 -0.011723745
-0.037333358 -0.0416169 -0.027310092 0.014990773 0.03673356 0.00652405 0.03846015 -0.0076793353
-0.035083618 -0.034770556 -0.010539221 0.007772878 -0.06568988 -0.029932396 -0.061506826 -0.031400006
-0.017525459 0.024694826 -0.018939864 -0.020074017 -0.065396994 -0.012920504 -0.005458626 -0.026618063
-0.03858462 -0.011597448 0.020269085 -0.03308096 -0.0049507613 -0.0146186855 0.004807611 -0.023508284
0.012889288 -0.069298394 -0.06486873 -0.036243822 0.014371557 0.027299214 -0.004811663 -0.016476307
-0.010773329 0.023133866 -0.052966926 -0.03680624 -0.0080400035 -0.00904629 -0.024441876 -0.02714221
-0.00092692353 -0.02166443 0.019680306 -0.056093935 -0.0063829795 0.027737973 0.005754353 -0.0029813943
-0.0036577724 -0.033694018 -0.0022718685 -0.05983502 -0.015986834 0.015760645 -0.009897294 -0.029296597
0.031672288 -0.019674724 -0.015193418 0.01670548 0.0090249805 0.014422842 -0.023631511 0.008355742
-0.0096514085 -0.058639392 -0.0708323 -0.03058012 -0.04547229 0.0127698425 0.011171963 0.026956946
-0.018202333 -0.02868477 0.015456911 -0.032475386 -0.0057233884 -0.033216365 -0.024215804 -0.010973818
0.020551056 -0.03386878 -0.065352805 -0.0065392847 -0.0792129 -0.038128693 0.012950231 -0.010786072
0.011720595 -0.050393198 0.026002448 0.0015440658 -0.025657453 -0.013477165 -0.029782826 -0.01907596
0.013467165 -0.050433587 -0.018633144 -0.027126852 -0.03086403 -0.018222276 -0.037512667 -0.010714789
0.016391575 -0.012089275 -0.025884846 -0.07910982 -0.009571255 -0.025102392 -0.03707563 0.029218763
-0.018732458 -0.011373632 -0.0032770867 -0.037069075 -0.0010480754 -0.0554026 -0.026073204 -0.03183988
-0.0014454079 0.017605854 -0.024349708 -0.009742095 -0.023473665 -0.022759596 -0.013249264 0.0043252814
-0.029924616 -0.029585695 -0.022892667 -0.036748618 -0.024550194 -0.028235788 -0.011354137 -0.038597308
-0.037076946 -0.01872469 -0.034176268 -0.07860424

weight f4 [96, 196]
00000000: eae6 253e 7c27 573d 29cc 45bd 98bf b1bc
00000010: a88b 0d3e c108 a2be 93ba 793e 2546 273e
00000020: c611 dc3d a9ac 67bb d6a8 1abe 7618 8a3d
00000030: 6275 4c3d bca2 bbbc 3f4d 26bd a622 02bd
00000040: 7d64 f7bc 7fae bbbe 5b75 65bd 1152 6bbd
00000050: 0dd0 f33c c520 27bd a0ea d43c 4f07 853c
00000060: 46c1 043d d306 fd3d 1c83 bcbe 1651 453d
00000070: 6f1d 073d 801c a3bb 32b4 d8bd db2e 773d
00000080: 66dc 113d 6da1 a2bb 77fb 813d 8483 fb3d
00000090: 33fb 55be adc3 0cbe b9fb 913c bf93 283d
000000a0: 900e 5abe c508 07bd 2421 a23d bb65 ae3d
000000b0: 68d9 97bd 490e 40be 6426 813b 482a 26bd
000000c0: 5fcc 543d 54cd 323c 1c9e 65bd 4bf5 8abd
000000d0: 6437 e03d f360 87bd cd77 d43d 7e10 c83d
000000e0: 0757 b1bd e0ae 93be 76ce 803d 2e44 353d
000000f0: 47d6 ca3c 4380 243d 1614 d63c 1315 45be
00000100: 6830 f03c e5fe a7bc 2ce3 ab3d fb2a 14bf
00000110: bfca 28bc 2421 6cbd 0255 153d a540 99bc
00000120: 1a36 433d 76e5 a93b c3a5 97bc aa35 a9bc
00000130: 3e24 92bc b9e8 68be 9b24 153d 3df9 18bd
00000140: 23dc 4c3d 7338 fe3d aee4 c9bd fce6 793e
00000150: f679 6bbd ed81 4dbd 2e09 7c3d 2e05 4f3c
00000160: e3b2 ab3d fc55 19bf dfed 203e 5d09 6fbe
00000170: 372b f23d 144a 7fbd 692d 7ebd 52fa 0dbd
00000180: 3e27 3d3d 0dbb 1bbe cb02 15be d704 373c
00000190: 50d5 383d db84 a4bc ef71 043e 43c8 2fbe
000001a0: afc9 c0be d213 783d f48a b13d a028 1bbe
000001b0: 624d 5cbe 0a6f 983d 5202 183c 3308 80bd
000001c0: 1ea2 a73d 072c 4ebd 4c79 51be 40f8 9abc
000001d0: ba5f a9bc e6be 8bbe 9729 03bd 71a9 bbbc
000001e0: 1ee6 39be 4acc a83d 24f6 96bd a891 873d
000001f0: 45b4 1bbd 413f ffbc fbfb 273e b249 c0bb
00000200: 863a 573d 9c41 9bbc 5ca3 863d 563e 9f3c
00000210: 863f d9bd 0a79 fcbd 2075 d1be 5db6 663d
00000220: ef69 58bd 2eda 4ebb e712 313b b400 bf3d
00000230: ced1 de3c bfe6 68bc 3839 583c 5326 10bd
00000240: b133 e93b d11f 9f3d 3e12 163d e8a0 bb3d
00000250: b9b6 08be 2d30 5d3d 2c21 40bd 56f0 2b3d
00000260: 77a7 e8bc 2e1e e6bd 8d57 ab3c c40f 7cbd
00000270: fdb1 33bd 42b1 f4bc b9c4 58be 6704 343d
00000280: c79a bb3d 37fd 583d 715f 793d 0f8b cd3d
00000290: 41a8 50bd 66f6 5c3e ebc6 8a3d 3723 d8bd
000002a0: b700 80bd 514e 4bbe 7649 f43c 4b92 c6bb
000002b0: c7ca 55bd 7b2f 52bd a934 923c b77a 24be
000002c0: fc83 5e3c 2011 7cbd 8765 53bd e7e7 8dbc
000002d0: 0dca 2c3d b399 abbc 0e72 243c 62e9 1dbd
000002e0: b416 80bd 5bac 3e3d 29b1 94be 5182 513c
000002f0: d626 88bd 4a68 b03e e9a9 f6be e87b eabc
00000300: f3d5 50be 6dfc 4c3b 3e38 373b f9e3 e3be
00000310: 3a11 bbbe 7157 613d 396a ea3b 40c7 2fbd
00000320: a691 9ebd 8d9e 6fbe 582b 1d3e 6faa 84bd
00000330: 344e 75be 779c 6b3d 86e3 68be 7f51 653d
00000340: 3318 6cbd 10c8 4fbc d0f9 95bd 4ed1 8bbc
00000350: 9346 253d cc6b 0ebe 0170 8cbc 6880 d03c
00000360: e77e 6f3e 3467 13be 46db 603d 1cd5 dbbd
00000370: 4fe0 913d 1fb2 2e3d 81e3 15be 70eb 6cbd
00000380: 0590 d13c c64e 813c f32c 98be 74f1 7f3d
00000390: 8fb1 443d 2236 8e3d fe0a 8cbc 99f1 82be
000003a0: 19f0 cbbc f03c a53d c453 a3bd f634 7cbe
000003b0: a3fa 2abd 1723 7cbb a919 633c 7a74 cc3d
000003c0: ad4f 4f3d e9f1 ae3e 41e6 77bc 239f 0ebd
000003d0: 7c74 423d 590a 793b deb0 393c bff5 99bd
000003e0: 196e dbbd 96a2 41bd 591f f63d fa39 043e
000003f0: e548 12bb 30ad b0bd 4176 82bc 97de ad3c
0.16201368 0.05252789 -0.048290405 -0.021697804 0.13822806 -0.31647304 0.24387579 0.16335352
0.107455775 -0.0035350716 -0.15103468 0.06742947 0.049916632 -0.022904746 -0.04060101 -0.031771325
-0.030199284 -0.36656567 -0.056020122 -0.05745131 0.029762292 -0.040802736 0.025990784 0.016238837
0.032410882 0.12354817 -0.3681878 0.048173033 0.032987054 -0.0049777627 -0.105812445 0.06034742
0.03561058 -0.004963091 0.06346791 0.12280944 -0.20896606 -0.1374652 0.017820226 0.041156527
-0.21294618 -0.032967348 0.07916477 0.08515497 -0.07414514 -0.1875545 0.003941344 -0.040567666
0.051952716 0.010913212 -0.056058988 -0.06785067 0.10948065 -0.066102885 0.10374413 0.09768771
-0.08659177 -0.28844357 0.06289379 0.044254474 0.024760379 0.040161382 0.026132625 -0.1924632
0.029319957 -0.020507285 0.08392939 -0.57878083 -0.010302245 -0.057648793 0.036458023 -0.018707583
0.047659017 0.0051848246 -0.018511659 -0.020655472 -0.017839547 -0.22745027 0.036411863 -0.037347067
0.050014626 0.124131106 -0.0985807 0.2440452 -0.057489358 -0.050172735 0.061532192 0.012635512
0.08383729 -0.59896827 0.1571574 -0.23343416 0.11824649 -0.062326506 -0.062055025 -0.034662552
0.046180002 -0.15208073 -0.14551847 0.0111705875 0.045125306 -0.020082882 0.12934087 -0.17166238
-0.37653872 0.060565777 0.08669081 -0.15152216 -0.21513894 0.07443054 0.009277897 -0.06251564
0.08185218 -0.050334956 -0.20456427 -0.018917203 -0.020675529 -0.2729408 -0.032022085 -0.022907944
-0.18154189 0.0824209 -0.07371166 0.066195786 -0.038013715 -0.031158092 0.16404717 -0.00586816
0.052546047 -0.018952183 0.06574127 0.019438904 -0.10607819 -0.12327774 -0.40909672 0.05632626
-0.0528354 -0.003156315 0.0027019323 0.09326306 0.027199652 -0.01421517 0.013197236 -0.0351928
0.007116758 0.077697404 0.03663849 0.0916155 -0.13350953 0.054001022 -0.046906635 0.04197725
-0.028400166 -0.11236225 0.02091577 -0.061538473 -0.043870915 -0.02986968 -0.21168794 0.04394951
0.09160381 0.05297586 0.060882036 0.10036289 -0.05094171 0.21578369 0.06776222 -0.10553592
-0.06250136 -0.19854094 0.029820185 -0.00605992 -0.052195337 -0.051314812 0.017847376 -0.16062437
0.013581272 -0.06153977 -0.051610496 -0.017322494 0.04218488 -0.020947313 0.010036958 -0.03855265
-0.0625433 0.04655109 -0.29041412 0.0127874175 -0.06648032 0.34454566 -0.48176506 -0.028623536
-0.20394115 0.0031278387 0.0027957107 -0.44509867 -0.3653658 0.05501503 0.007153776 -0.04291463
-0.07742624 -0.23400326 0.15348566 -0.0647782 -0.23955613 0.057522263 -0.22743043 0.055985924
-0.057640266 -0.012681976 -0.073230386 -0.017067578 0.040350508 -0.13908309 -0.017143251 0.025451854
0.23388253 -0.14394838 0.054896615 -0.10734007 0.071228616 0.04265034 -0.14637567 -0.05784172
0.02558137 0.015784632 -0.29721794 0.062486127 0.048020896 0.06943919 -0.017095085 -0.2557495
-0.02489476 0.080682635 -0.079749614 -0.24629578 -0.041742932 -0.0038473064 0.013861098 0.09983154
0.050613094 0.34168938 -0.01513058 -0.034819733 0.04747437 0.0038000552 0.011333672 -0.075175755
-0.10714359 -0.047274195 0.12017698 0.12912741 -0.002232128 -0.08626783 -0.015925528 0.021224303

bias f4 [96]
00000000: 738b 1abe 9c36 763e 9023 16bd 1521 46be
00000010: cb19 5c3e 6090 b8bd c6b3 90bc 6450 7abe
00000020: eadf 97bd 9c1a 7cbd 5ea3 f4bd 200a 0f3e
00000030: a91c 3abe 0bf7 a43c 21dd 93be 4770 82bd
00000040: 0e2b c53d 5c2d 8abe e456 063d e56f e63e
00000050: b209 9ebd d429 93be 5722 f4bd 4612 d4bd
00000060: 5032 dbbd 405c 64be a014 9ebd a6a1 3bbd
00000070: f1da 023d 121d 97be da0a 2abe b978 6c3e
00000080: 1c27 1a3f 3978 63bd e781 853e 6167 403e
00000090: ac42 3e3d c880 173e 26af 5e3c 8a24 9abe
000000a0: 7e6a a23e 8f54 52be bed1 293e 6531 9cbd
000000b0: 214a 783e a45c c0bd 94a3 4abe 32de 60be
000000c0: a9e1 d5bd 42d0 45be 7eb0 45bd d11a 38bc
000000d0: 53ce 0dbc 2b1b a93c 0625 2dbd b92e 59be
000000e0: 1338 af3d 95c9 a1bd 2ec4 123d 7e56 873d
000000f0: 77d3 1ebd ddd0 89bd 27f9 0abd e5d5 a23d
00000100: ea5f 8d3d 71ae 86be 1e98 50bd a14b 5abe
00000110: a7a7 273b 2f13 09bc 7f5c d53c 0e48 d3bd
00000120: 304e 77bd c07a 1cbe e3af c43d c6dc 253e
00000130: 4c08 27be 60b7 35bd 6b5c 18be 1069 1a3d
00000140: c1ef 1c3b 5cb8 3ebe 2b14 3ebe 101e d53e
00000150: 3fa0 12be 6923 95bd e771 a5bc bdc1 7abd
00000160: b81b 593c d549 103d f1a2 8b3d ea15 86bd
00000170: ce21 87bd bef2 5dbd 148d aabd dce3 9bbc
-0.15092258 0.2404427 -0.03665501 -0.19348557 0.21494214 -0.09011912 -0.017663848 -0.24444729
-0.07415755 -0.061548814 -0.11945222 0.13968706 -0.18174995 0.02013733 -0.28879645 -0.063690715
0.09627353 -0.2698773 0.03279771 0.45007244 -0.07716693 -0.2874285 -0.11920612 -0.10355048
-0.10702956 -0.22300816 -0.07718778 -0.045808457 0.03194708 -0.29514366 -0.16605702 0.23092927
0.60215926 -0.055534575 0.2607567 0.18789436 0.046450302 0.1479522 0.013591563 -0.30106002
0.31721872 -0.20540069 0.16583917 -0.07626609 0.24247028 -0.0939267 -0.19788963 -0.21959761
-0.10443432 -0.19317725 -0.04826402 -0.011236862 -0.008655149 0.020642838 -0.042271636 -0.2120923
0.08555617 -0.07899777 0.035831623 0.06608294 -0.038775887 -0.06729291 -0.033929016 0.079509534
0.0690306 -0.26304963 -0.05092632 -0.21317913 0.0025582106 -0.00836639 0.026045082 -0.10316478
-0.0603773 -0.152812 0.0960386 0.161975 -0.16311759 -0.044364333 -0.14879005 0.03769785
0.0023946615 -0.18625015 -0.18562381 0.41624498 -0.14318942 -0.072821446 -0.020195914 -0.06121992
0.013251238 0.03522666 0.06818188 -0.065471485 -0.065982446 -0.054186575 -0.0832769 -0.01902955

weight f4 [64, 96]
00000000: 12ce 14bd b8c7 81bc d72e 163e aefb e7be
00000010: 2bfb b1be 49e6 8fbc f734 92bd 4d84 cebc
00000020: af02 adbd 892e a63c 6703 053d 9630 c8bd
00000030: 4943 853d 2ea8 e9bd 74ee b53b 8343 513e
00000040: 9d4d 38be 7aa4 0b3d e440 8a3d 7059 5dbd
00000050: 44d1 cc3c 0e25 32be 1a7b 1f3e 652c 083b
00000060: 92db b43b b2d7 123e 8de6 e4bd f8ab cf3d
00000070: 0f49 1a3e bcda c73b 65bb 3c3c 9b34 283e
00000080: a67f 94be a37c ef3c ff0f 82be 1c42 97bc
00000090: 6752 5d3e ee4d bdbd 5551 bebc 5a63 96be
000000a0: 0557 773d f846 18be 183b 07be 8f5a c7bc
000000b0: d4bd cb3d 51c5 1c3e c442 3cbc 8171 803d
000000c0: 6d86 b33c 899a 38be b706 3a3d f5a9 bf3d
000000d0: d988 fbbd 1d8d f73b d30d 703e 6e66 88be
000000e0: 0009 973c 2b3c f73c 644a 063e 887d a6be
000000f0: 2ebc 95bd 4b88 8e3d 2a8c d43d b60e 763d
00000100: 8ec5 8bbe d0a9 8bbe 8358 26bc d824 1f3e
00000110: e8e8 3dbd 0f5e d63d 9b74 09be aee1 e53d
00000120: d995 afbc 203e 083e d9e6 373d e870 41be
00000130: cc9d adbe a629 1cbd 311e 153e 5cb5 9d3d
00000140: 023a 543e d911 803e badf 16bd 34f2 41be
00000150: b419 00bd 462a 36be 36b1 29be 67eb 88bd
00000160: bb98 14be efad 633e 2ec1 2dbe 153f 07bc
00000170: 0888 653d daac 26be 48a6 853e 1971 723e
00000180: 0d97 cfbd df79 c2bd 16fb dabe 2394 8d3e
00000190: d162 0bbf c92e 18be 959a a7bd b14b 0cbe
000001a0: 75f8 8b3d 1135 61bd 98d2 abbd 8797 81bc
000001b0: 0aad 3fbe 9e66 043e c946 c2bd 41ab 4cbe
000001c0: f31e adbd a285 013e 4966 6cbe 941e d23c
000001d0: 225b ad3d a136 2a3e 80ce debc 7d79 5dbe
000001e0: bdad babc a4db 3a3e 26c9 193d bade 953d
000001f0: 6cd7 913d 30de 65be d6ea 333d b2c0 dfbd
00000200: f9b2 a1be af71 40ba 50a4 66bd 71bc 59be
00000210: d6d5 b2bd 00ff 91be 160a 02bd c19d 7bbe
00000220: 1161 84be 3025 59be 72ef aebd 7871 153d
00000230: fe99 3cbe 3335 20bd 1275 b0bd d185 30bc
00000240: 0f3d c53b 5de8 1dbe a3aa b93d f4f6 823d
00000250: 9a9a 66be ba3a 0b3e 3583 17be 67ef ffbd
00000260: 331f a73d 6641 443d f8ac 063d 6123 44be
00000270: cbfe 063d 1ffa b93e 0d27 4dbe 2324 9fbd
00000280: bbd7 2ebe a31f a93d 0008 b1bc 7e14 22bd
00000290: de9d 763d 6df4 643d cdde 99be 6456 efbd
000002a0: 0d96 8fbd 5f49 b23d 4bc8 a9bd b777 01bc
000002b0: cdc4 18bd 2880 32be f797 c4bd 1fad d9bd
000002c0: 5e05 213e dc10 b0bd f08d b1be 8856 88be
000002d0: 7c9a 6e3d da54 0abd 70f4 b6bd 15ee a4be
000002e0: 2197 aabc b484 f8be 73cb c4be 8b66 adbd
000002f0: 837d fc3d d098 f3bd e0c8 113e 5827 093c
00000300: 17e7 1bbc 7fd9 79be a5f5 60bc df47 5bbc
00000310: 8a39 493e 9f13 133c ffd4 c2bd 12d9 f43d
00000320: 8bf0 91bd 61c3 bc3d 20ee 233d b527 c73b
00000330: 4c84 02be 596b fa3c b445 103e a1e7 7e3d
00000340: 93b2 13be 9789 553e 769e 75be 4445 5fbe
00000350: 9840 d93c 6049 8a3c 9a50 85be 8986 7dbe
00000360: 6169 adbc a796 83be 09e7 943d e67f 72bd
00000370: 5111 963c 9f14 3a3d 132d ecbd 6003 8a3d
00000380: 3053 29be 225a 8abd 5f5d 17bd a414 99bb
00000390: ec9c 613e 82c0 34be c0d1 86be e847 523e
000003a0: 250a abbe 66be 4fbe ae60 103e d101 b7bd
000003b0: cca1 d5be c9d6 503e 7b74 43bd 5a9c 5ebc
000003c0: da7d 97bc 4750 cbbd b45b 5ebe 5666 c0bc
000003d0: 6afc cb3d 8eb6 93bd 315c bbbe b72f 2a3d
000003e0: 51f2 b83c 099e d03c 30e5 d13c 3f4b b03d
000003f0: 2367 bb3d fdaa 723e 094c a8be 43cc 85bb
-0.036329336 -0.015842304 0.14666305 -0.45309204 -0.34761938 -0.017565863 -0.071390085 -0.02520957
-0.084477775 0.020285862 0.032473948 -0.09774892 0.06506974 -0.11409031 0.0055521075 0.2043591
-0.17998357 0.034092404 0.06750658 -0.054040372 0.02500213 -0.17396948 0.15574303 0.0020778414
0.005519339 0.14340094 -0.111767866 0.10140222 0.15066932 0.006099073 0.011519288 0.16426317
-0.29003638 0.029234236 -0.2540283 -0.01846414 0.21613465 -0.092433795 -0.023232142 -0.29372674
0.060385723 -0.14870822 -0.13206136 -0.024335174 0.09948316 0.15309645 -0.011490528 0.06271649
0.021914685 -0.180277 0.04541656 0.093585886 -0.12281961 0.007554664 0.23442774 -0.26640648
0.018436909 0.030180058 0.13114315 -0.32517648 -0.07311283 0.069595896 0.10378297 0.060072623
-0.2729916 -0.27277994 -0.010152939 0.15541399 -0.046364695 0.10467159 -0.13423388 0.112246856
-0.021433758 0.13304949 0.044897888 -0.18890727 -0.33909452 -0.038125657 0.14562298 0.07700607
0.20725253 0.25013617 -0.036834456 -0.1894005 -0.031274512 -0.17789564 -0.16571507 -0.066855244
-0.14511387 0.22234319 -0.16968223 -0.008254786 0.056037933 -0.16276875 0.26103425 0.23675956
-0.101362325 -0.09495901 -0.42769688 0.27652082 -0.54447657 -0.14861597 -0.08183781 -0.13700749
0.06834499 -0.05498225 -0.08389777 -0.015819324 -0.18718353 0.1292977 -0.094861574 -0.19987203
-0.08453169 0.12648633 -0.23085894 0.025649346 0.08464648 0.16622402 -0.027198076 -0.21628375
-0.022787923 0.18247849 0.037545346 0.07317872 0.071211666 -0.22448039 0.04392513 -0.109254256
-0.31581858 -0.0007341159 -0.056309044 -0.21263291 -0.08732192 -0.28514862 -0.0317479 -0.24571897
-0.25855306 -0.21205592 -0.08541764 0.036485165 -0.18418118 -0.039113235 -0.086160794 -0.010774092
0.0060192416 -0.15420671 0.090657495 0.06394759 -0.22519913 0.13596621 -0.14796145 -0.12496834
0.08160248 0.04791393 0.0328798 -0.19154121 0.032957833 0.3632364 -0.20034428 -0.077705644
-0.17074482 0.08257987 -0.02161026 -0.039570324 0.060209148 0.055897165 -0.30052796 -0.116863996
-0.07011042 0.08705401 -0.08290156 -0.007902077 -0.03729706 -0.174317 -0.095992975 -0.10628723
0.15724704 -0.08596966 -0.34678602 -0.26628518 0.058252797 -0.033772327 -0.089333415 -0.32212892
-0.020824017 -0.48538744 -0.3843647 -0.08466824 0.12328627 -0.11894381 0.14236784 0.008371197
-0.009515545 -0.24399374 -0.013730441 -0.013383835 0.19650856 0.008976846 -0.09513282 0.119554654
-0.07125958 0.09216953 0.040022016 0.0060777315 -0.1274578 0.030568765 0.1408909 0.062232617
-0.1442359 0.20853268 -0.2398623 -0.21803766 0.026520059 0.016880691 -0.26038057 -0.24758352
-0.021168413 -0.25700876 0.07270629 -0.059204005 0.018318804 0.045429822 -0.11532035 0.06738925
-0.1653564 -0.06755473 -0.03695428 -0.00467165 0.22032517 -0.17651561 -0.26331902 0.20535243
-0.33406177 -0.20287475 0.1409938 -0.08935893 -0.41725004 0.20394434 -0.047718506 -0.013587082
-0.018492628 -0.09927421 -0.2171467 -0.023486298 0.099602535 -0.07212554 -0.36593774 0.04154941
0.022576483 0.025465982 0.02562198 0.08608102 0.09150531 0.2369804 -0.3287051 -0.004083188

bias f4 [64]
00000000: 2417 75be 07b1 2f3e cf91 3bbd 9e5a 9d3e
00000010: 00c2 22bc 7a56 83be 00b6 903d cf9a 373e
00000020: a50a 8d3e 3b9f 673d 71d7 40be 1a2b 003d
00000030: 0d0d 70be 8bbd 70be 34f7 1c3d 1e5e b03e
00000040: 1ead 12be c2e0 e23d 0075 6d3d dee8 9bbd
00000050: 510c b0be 7ac0 b43d 7e87 18bd c461 5e3e
00000060: 5c5b e63c 9fd5 183e d23e f6bc 77e2 adbc
00000070: 8ec8 aebc a0f8 163e 16cb e3bd 4552 31bc
00000080: fb47 173d cef6 58be 1490 f13e ca90 4fbe
00000090: 0279 edbd c952 ce3e ac79 a0bd 1f80 0c3f
000000a0: e964 b53e 6e63 00bd b0fc ac3d c917 2b3e
000000b0: baf4 a3bd a09a cd3d 4f86 10be 7762 a1bd
000000c0: a21d c63e 697a bcbd eaee 32bd 18e9 81be
000000d0: 0e79 3ebe 3838 28bb aa17 033d d59a d4bd
000000e0: 1b62 08be adcb 1ebe ce96 babd 92fc e2bd
000000f0: 5432 34be 4f38 2fbe 91ab aabd f3de 50be
-0.23934609 0.17157374 -0.04579335 0.30733198 -0.0099339485 -0.25651914 0.07065964 0.17930149
0.27547184 0.05654834 -0.18832184 0.031291105 -0.23442478 -0.23509805 0.03832169 0.34446806
-0.14323851 0.110780254 0.057972908 -0.07612775 -0.34384397 0.088257745 -0.03723859 0.21716982
0.028119735 0.1492524 -0.030059252 -0.02122615 -0.021335866 0.1474328 -0.1112272 -0.010822837
0.03693388 -0.21187899 0.47180235 -0.20270076 -0.11595346 0.40297535 -0.07835707 0.54883
0.3542855 -0.031344824 0.08446634 0.16708292 -0.08005662 0.10039258 -0.14113735 -0.07880109
0.38694483 -0.092030354 -0.043684877 -0.2537315 -0.18600866 -0.0025668275 0.03200499 -0.10381094
-0.13318674 -0.15507384 -0.09110795 -0.1108333 -0.17597324 -0.17111324 -0.08333505 -0.20397548

weight f4 [10, 64]
00000000: 7d9d 8bbe 46b4 9c3d b323 783d 676d a13d
00000010: 601a 13be ba23 97be 81e6 fbbd 92c9 cd3d
00000020: 055e 23be 2418 fb3d 6586 04be c2f5 de3c
00000030: 48e8 333b e1b0 07be 80d4 3bbe f2d3 93bd
00000040: dad1 1dbe d52d 113c ddd7 e9bd 5ccb 8bbc
00000050: 9dec 93be 2591 6cbe df00 97bd dd9f 61be
00000060: 1216 70bb 2287 1b3d b011 2bbe 28d3 e03d
00000070: 6107 a4bc 65fb a5bc 39b4 01bd a88b 89bd
00000080: eacd 873d a85c 21be 0ba2 04bd a4fc e5bd
00000090: ec0f 83bc 169b 273d e9bb 823d 73ab debd
000000a0: 8d15 52bc ebd2 57bc 7a17 6cbe 57eb 81be
000000b0: 554a 93be ad41 a1be ac04 123e 9aa0 7ebd
000000c0: 1874 f13d ce5e 72be 996b e0bc 4270 57be
000000d0: 9b1c 3dbd c847 8dbd 0732 893d 5977 363d
000000e0: f4bc 863b bd46 41bd 59b3 113e 1109 f43c
000000f0: a1a6 e5bd e633 143e 5d23 cbbb 1825 1cbd
00000100: 68a1 39bd 458b b0be b672 cdbb 9568 9abd
00000110: fec6 0e3e f70c 443b 35fd 18be 2858 7b3d
00000120: cf4e 8cbe ca8a 4d3d 7efb 763d 3f28 27be
00000130: be23 dc3c 2719 0dbe bf1b d93c d55f 9fbe
00000140: b109 8fbc c53d 07be b07c 5c3d a063 50bd
00000150: ae9b 2d3e 2ac8 3abe 4ca6 ed3c 7de0 3ebd
00000160: 07e1 e73d 77fb 10be 7533 883b 5ca7 6dbe
00000170: 3233 623c b5b9 8fbe e2f0 67be 991e 76be
00000180: c173 49be b9a7 e63d 0d3c 55be ad60 8bbd
00000190: 67dc 8c3d 3379 2cbd 9bf1 a1be b89b 9b3d
000001a0: b354 9dbe de68 3abe f8d6 943d add5 7ebe
000001b0: aa4d ac3d 6c9e ebbb 8cc0 9ebd 762e 39be
000001c0: 5ccb d8be e42c 73bc a3bd b9bd a307 14be
000001d0: 2c36 d8be e9d5 75bd aabd a7be e558 b5be
000001e0: 8265 a9be 792d a53d 2c8e 5c3e 9a5c baba
000001f0: b902 fbbc e297 d3be 8f2b 01be e279 523d
00000200: ddbf bf3d 46c1 2cbe 4c2d 08bd af30 52bd
00000210: eba7 05be d371 c83c 2ec0 88be cb5a 993c
00000220: 32eb ac3a c86e 503d ca1b 1fbe 4310 953d
00000230: 4001 c23d 9cd4 7cbe a9cb 44be bf47 97be
00000240: 59ec 7cbe 60e7 45be 4903 87be 379b 53be
00000250: 8035 cf3d eea9 0f3d fb9c 8dbe e469 8c3d
00000260: ecbf 8fbe 16cf 62be 0f82 f63c 0a63 e73d
00000270: d4b4 a73a cd42 033e 0452 fd39 9e65 1b3d
00000280: b26c b73d ff84 073c df07 da3b f800 8cbd
00000290: 1935 6cbc f0ba 813d d823 023d c803 1cbe
000002a0: d830 8b3c dffb 193d ecf2 43bd 6b1d 30bc
000002b0: da3c 613c c568 85be 1d45 fdbd c67a 6b3d
000002c0: 79f4 f2bd 616c 97be 67d0 0dbd c3e0 ac3d
000002d0: b4d4 3dbe ca5a 1cbe 151e 46be b4e9 d4bd
000002e0: 373f 0bbd 501a 37bd ddb6 f7bd 9278 abbc
000002f0: 488b 46bd 27a8 1f3d 42ad bf3b 7ed6 f6bc
00000300: a910 00be 2763 a63d b67e 1e3e 45a7 c9bd
00000310: f60b b03d 7da6 4cbe 4ee6 5e3d 4dd1 94be
00000320: eac5 0f3e 67d7 5a3d 95b3 0abe 2c56 08bc
00000330: 43e4 813d 6ff7 37be 24ad f93c 64b5 05bc
00000340: 1c72 2ebe 3e50 b03d 910a 6d3c 16f9 98bc
00000350: 5385 84bd f8e1 313e f502 b3bd 17d0 783d
00000360: cc27 adbd c38e 22be ef5f 6d3c 0473 40be
00000370: 3ecc 6abc 31f8 d1bb a13f 84bc 22b0 c6bb
00000380: 7ddb 84bd 5e93 99be 4b40 f6bd 6579 f3bc
00000390: 81ea 9dbd 1bd4 d93d da9f 76be 5e54 53be
000003a0: c037 823d a5e6 e3bd 49c0 47bd b9e0 2fbe
000003b0: 11d4 dfbd c48d 033e 3a12 e2be 9447 8ebe
000003c0: 136c 433d 27e3 3dbc ee78 cfbd 62a8 4bbd
000003d0: dd78 74be f8bd f3bd 836f 933c 26d5 9b3c
000003e0: e4ef f9bc 80ea 7bbd c6e0 1bbe 4abc 0bbd
000003f0: 53f9 64bc 1b86 84be e4c3 12be 1739 b5bd
-0.27268592 0.07651572 0.06058092 0.07882195 -0.1436553 -0.29519445 -0.122998245 0.10048212
-0.15953834 0.12260464 -0.12941892 0.027216796 0.0027451683 -0.13251068 -0.18342781 -0.0721816
-0.15412083 0.008861025 -0.11418126 -0.017064743 -0.2889146 -0.23102243 -0.07373213 -0.22033639
-0.0036634249 0.03797067 -0.16705966 0.10977775 -0.02002305 -0.020261476 -0.031666014 -0.067160904
0.06631072 -0.15758002 -0.0323811 -0.11229828 -0.015998803 0.040919386 0.06383497 -0.10872545
-0.012822521 -0.013172845 -0.2305583 -0.25374863 -0.28767648 -0.3149542 0.14259595 -0.06216488
0.11789721 -0.23668978 -0.027395057 -0.21038917 -0.04616986 -0.06898457 0.06698995 0.044547413
0.0041118804 -0.047186602 0.14228572 0.02978948 -0.112134226 0.14472923 -0.006199284 -0.038121313
-0.045319945 -0.34481254 -0.006269778 -0.07539479 0.13943097 0.0029914954 -0.14940341 0.06136337
-0.27403876 0.050181188 0.060298435 -0.16323946 0.026872512 -0.13779126 0.026502488 -0.31127802
-0.017460676 -0.13207157 0.05382985 -0.05087626 0.16953918 -0.18240419 0.02900996 -0.046600807
0.113222174 -0.14158426 0.004156525 -0.23208374 0.013806151 -0.2807137 -0.22650483 -0.2403511
-0.19673063 0.11262459 -0.20823689 -0.06805549 0.06877976 -0.042107772 -0.31629643 0.0759806
-0.30728683 -0.18204066 0.072675645 -0.24886198 0.08413251 -0.007190516 -0.07751569 -0.1808413
-0.4234265 -0.014842246 -0.090693735 -0.14456038 -0.4222883 -0.060018454 -0.3276189 -0.35419384
-0.33085257 0.08065314 0.2153861 -0.0014218271 -0.030640947 -0.41326815 -0.12614273 0.051385768
0.09362767 -0.16870603 -0.033246323 -0.05131596 -0.13052337 0.024468338 -0.2670912 0.018720051
0.0013192652 0.0508869 -0.15537944 0.07278492 0.09472895 -0.24690479 -0.19218315 -0.29546925
-0.24699534 -0.19326544 -0.26369694 -0.20664679 0.10117626 0.035074167 -0.2765883 0.068561345
-0.28076112 -0.2214931 0.030091314 0.11298187 0.001279498 0.12818451 0.00048317027 0.037938707
0.08956279 0.008271455 0.0066537703 -0.06836122 -0.014416956 0.063344836 0.031772465 -0.15235817
0.016991064 0.03759372 -0.04783909 -0.010749201 0.013747418 -0.26056495 -0.12366698 0.057490133
-0.11863036 -0.29574874 -0.034622576 0.084413074 -0.18538171 -0.15269008 -0.19347413 -0.10396138
-0.033995833 -0.044702828 -0.12095425 -0.020931516 -0.048472673 0.038978722 0.0058495114 -0.030131575
-0.12506355 0.081243806 0.15478024 -0.09846357 0.08596031 -0.19985385 0.054418854 -0.29065934
0.14040342 0.05342808 -0.13545068 -0.008321326 0.063423656 -0.17965482 0.030478068 -0.008160923
-0.17035717 0.08609055 0.014467851 -0.01867346 -0.06470742 0.17371356 -0.087407984 0.060745325
-0.08454856 -0.15874772 0.014488204 -0.18793875 -0.014330922 -0.0064077605 -0.016143622 -0.006063477
-0.064871766 -0.29995245 -0.12023982 -0.029720971 -0.07710744 0.10636159 -0.24084416 -0.20637652
0.0635829 -0.11127976 -0.04876736 -0.17175569 -0.1092912 0.12847048 -0.4415453 -0.27788985
0.04771049 -0.011589802 -0.101304874 -0.04972113 -0.2387423 -0.11901468 0.017997509 0.019022536
-0.030509897 -0.061502934 -0.15222463 -0.034115113 -0.013975459 -0.25883564 -0.14332539 -0.0884878

bias f4 [10]
00000000: 6678 fabd cfd7 80be 98b9 c7bd ebf4 d23c
00000010: de31 043e dd94 a03c 1556 afbb f0ed 8dbe
00000020: 298d 1e3f f514 03bd
-0.122299954 -0.2516465 -0.09752196 0.025751552 0.12909648 0.019602234 -0.005350838 -0.27720594
0.61934143 -0.032002408
