neural_net_mnist_CrossEntropyLoss.pth.tar (torch, 723624 bytes, 8 tensors)

weight f4 [196, 784]
000000 37 b2 3c 3b a8 c7 6f bc 90 e9 ff 3b 97 5d 1b bc
       0.0028792748 -0.014635004 0.0078098252 -0.009482763
000010 05 69 d7 bc 93 d9 d4 3c 3e 34 e3 bc 70 7f 0c 3d
       -0.026295194 0.025982654 -0.027734872 0.03430122
000020 8b a9 85 bb 94 e5 2f 3b 90 db d6 bc 9f 5d 3c 3b
       -0.004079049 0.002683972 -0.026227742 0.0028742326
000030 5d 65 ec 3c 2e 11 43 3d 65 cc 12 3d e2 d9 c9 bc
       0.028856928 0.047623806 0.035839457 -0.024640027
000040 71 59 ec 39 e1 03 a7 3c 12 ea 93 b9 c5 45 07 3c
       0.00045080067 0.020387592 -0.0002821242 0.00825638
000050 50 92 b3 3c ef f4 19 bc 29 02 41 bc 8b f8 28 3d
       0.021920353 -0.009396776 -0.0117803 0.041252654
000060 98 4a fe 3b 3b d8 b7 3c c2 8e cf 3b 6e b1 22 3c
       0.007760357 0.022441974 0.0063341567 0.009929998
000070 b1 49 b2 3c 10 60 8f 3c 17 d4 de bb 36 7f 39 bc
       0.021763654 0.01750186 -0.0068001854 -0.011321833
000080 d6 09 ba bc 2c 64 87 bc c6 27 b5 3c 23 12 a1 3c
       -0.022709768 -0.016527258 0.022113692 0.019661969
000090 02 bf de 3c 24 9c 49 3d f9 e1 8c 3c bc db 4c 3d
       0.027190689 0.049221173 0.017197596 0.050014243
0000a0 7b fb ac 3d 13 48 23 3d bb 9d 55 bc f4 86 90 3c
       0.084464036 0.039863657 -0.013038094 0.017642476
0000b0 0f ee e9 3c 0d aa 91 bb a9 72 1a 3d 1c 39 51 3d
       0.028555898 -0.0044453205 0.037707005 0.051079854
0000c0 8b ac fa 3b db 03 cf 3b 92 36 0d 3c ae 56 a8 3b
       0.0076499633 0.0063175983 0.008618968 0.005137286
0000d0 02 a7 b1 bc db 2b 3d bb 43 6b 28 3c 9d 4d 51 bc
       -0.02168608 -0.0028865251 0.010279479 -0.012774852
0000e0 cf 4b 25 3d e4 b5 bd bc 3b ea 8e 3c 51 21 c7 3c
       0.0403555 -0.023158021 0.017445674 0.024307879
0000f0 c1 21 7a 3b af be d0 bc 9d 01 c2 3c 56 d1 9e 3d
       0.0038167092 -0.02548155 0.02368241 0.077547714
000100 90 e1 8e 3d 18 1e db 3d 71 37 fe 3d 28 fb 2f 3e
       0.069766164 0.10699099 0.12412918 0.17185652
000110 60 d4 21 3e f7 3f ef 3d 38 1b 29 3e b8 10 d0 3d
       0.15803671 0.11682122 0.1651429 0.10159439
000120 9d b7 ca 3d 18 e0 a7 3d db 95 a2 3d c0 ee 26 3c
       0.09898303 0.08197039 0.07938739 0.010188758
000130 14 c3 e0 38 07 2a 03 bb e1 79 8e 3c 0a dc 4d bc
       0.000107174885 -0.0020014064 0.0173921 -0.012564668
000140 fc 7d 48 bb 52 4d a9 3c c4 df cd 3b 27 ed 18 3d
       -0.003059267 0.020666752 0.0062827785 0.03733554
000150 ee a6 d0 bc aa 4d 4c bc ff 35 7f bb e6 5f 38 bb
       -0.025470223 -0.012469688 -0.0038942096 -0.0028133332
000160 02 3f 97 bc 0d 14 33 3c b4 33 86 3d 19 8d a2 3d
       -0.018462662 0.010930073 0.0655283 0.079370685
000170 ab 38 28 3e 7e cf 92 3e d6 17 58 3e 4f 31 4f 3e
       0.16427867 0.2867393 0.21102843 0.20233653
000180 30 a8 09 3e aa 6d a4 3e 37 1c b9 3e df 37 93 3e
       0.13443065 0.32114917 0.3615434 0.28753564
000190 ba 5a e4 3d a9 6c b6 3d f5 07 93 bd 22 54 f4 bd
       0.11150117 0.08907444 -0.07179252 -0.119301096
0001a0 1f 3d 09 be 23 e1 32 bd f4 63 0e bd b3 f2 bc bb
       -0.13402222 -0.04367174 -0.03476329 -0.0057662367
0001b0 25 40 cc ba c7 30 f1 3c 97 2c de bb 86 65 bd bc
       -0.0015583081 0.029442204 -0.006780218 -0.0231197
0001c0 3c fe 00 3b cb 2d 80 bc 36 bf 97 3c 07 4a 84 3b
       0.0019682785 -0.015646836 0.018523794 0.004037145
0001d0 bd 0a d0 39 e2 5a 15 3d e7 d6 0c 3d 59 b7 fb 3b
       0.00039680852 0.036463626 0.034384634 0.007681769
0001e0 54 3d 2d 3e d9 19 e8 3e 55 37 eb 3e f3 b9 bc 3e
       0.16917926 0.4533222 0.45940652 0.36860618
0001f0 06 d5 8d 3e a2 32 b7 3e a1 9d 21 3f 91 f1 c7 3e
       0.27701586 0.35780817 0.6313115 0.39051488
000200 8c 61 ba 3d 92 15 12 be aa d2 4a be 8e 6c 60 be
       0.09100637 -0.14266041 -0.19806924 -0.2191641
000210 30 99 41 be 08 56 53 be 79 3f 62 be d1 10 40 be
       -0.18906093 -0.20638287 -0.22094525 -0.18756415
000220 94 30 a3 bd 2a 2a 2e 3d e2 79 a9 3c 75 05 46 3c
       -0.0796825 0.04252068 0.020688001 0.012086262
000230 b5 86 f8 3c c9 64 65 bb 1c 57 26 3d 6d 9f 25 3c
       0.03033767 -0.00350027 0.040610418 0.010108811
000240 b6 d2 06 bc 9e 6c ab bd 4c 90 ce bd 26 ff 52 bd
       -0.008228948 -0.083703265 -0.10086116 -0.05151286
000250 49 10 15 3e 38 9e bc 3e a8 4c eb 3e fd 6c 92 3e
       0.14556994 0.3683946 0.45956922 0.28598776
000260 1c e0 34 3e 09 14 83 3e 2d 99 9d 3e 80 25 07 3c
       0.17663616 0.25601223 0.30780926 0.008248687
000270 ac dd 17 be f7 df b7 be cf d5 ab be ad d9 8c be
       -0.14830655 -0.3591306 -0.3356156 -0.27509823
000280 59 bf 94 be 66 ca a6 be 9f 9c 8b be 5b 14 44 be
       -0.29052237 -0.32576293 -0.2726793 -0.1914839
000290 14 30 ad bd 17 26 03 3c 23 44 ac 3d ec d4 11 3c
       -0.08456436 0.008004687 0.084114335 0.008900862
0002a0 ba bd b7 bc 16 4b c0 3c e1 00 c0 bc 26 8e 3e 3c
       -0.022429336 0.023473304 -0.02343792 0.0116305705
0002b0 06 6d 33 bd 92 5e d4 bd 78 4e 1c be 40 50 c6 bc
       -0.043805145 -0.103696 -0.15264308 -0.024208188
0002c0 18 4c af 3d b9 a9 15 be 2f 1f 2a be 35 cb a6 bd
       0.085594356 -0.14615525 -0.16613458 -0.081442274
0002d0 5c 1f bb bd 41 37 e2 3d a1 7e f7 bd af 86 ba be
       -0.09136841 0.11045695 -0.120846994 -0.3643088
0002e0 6a 6e bd be 8a e2 28 bf e8 08 ff be 6c 30 4a be
       -0.36998302 -0.6597067 -0.49811482 -0.19745034
0002f0 3f ee 4a be 84 bb a6 be 6e f5 7d be c4 22 2a be
       -0.19817446 -0.32564938 -0.24800655 -0.16614825
000300 a6 b8 88 bd 6b 86 4c bc 18 d8 33 3d 3a 07 13 bc
       -0.06675844 -0.01248322 0.043907255 -0.008973891
000310 a3 fb c6 3c 29 43 1d 3d 58 98 6a 3c 8d 26 3c bc
       0.024289912 0.038394127 0.014318548 -0.011483801
000320 41 2f a2 bb 31 84 c9 bc ed 10 40 be 1d 62 6c 3b
       -0.0049494808 -0.024599167 -0.18756457 0.0036069222
000330 76 48 95 3d e6 6c 81 be 4e 17 99 bd 48 3e 25 3e
       0.072892115 -0.25278395 -0.07475148 0.1613704
000340 73 2d 21 3e a1 dd bd 3d a7 3c b9 be ab bb a9 be
       0.15739994 0.09270788 -0.36179087 -0.33150992
000350 0d 88 a0 be 0c 6d 17 bf 68 fd e2 be 5c 99 35 be
       -0.31353799 -0.5915077 -0.4433396 -0.17734283
000360 3a 98 3a be 9f d2 02 be 49 f6 94 be 1f 7c 78 be
       -0.18222132 -0.12775658 -0.2909415 -0.24266098
000370 84 58 a5 bd ef e2 84 bd 3f ab df bc c6 5b a5 bb
       -0.08073524 -0.06488597 -0.027303336 -0.0050463406
000380 e1 78 a6 bc cf 2f 87 3c 84 22 75 38 e6 af 14 bd
       -0.020321311 0.01650229 5.8444697e-05 -0.036300562
000390 06 c1 c2 bd 23 0f b1 bd 5d 3d ca bd eb db 0a 3c
       -0.095094725 -0.08645465 -0.09874985 0.008475284
0003a0 8a d0 9f 3d 97 a2 f8 bd 31 d7 f6 3d b2 a5 44 3e
       0.078034475 -0.121403866 0.12052763 0.19203833
0003b0 10 53 60 3e 89 46 69 3b 1c f2 c6 be 6b 42 01 bf
       0.21906686 0.003559502 -0.3885659 -0.5049197
0003c0 e2 cb 4b be 52 ea 1b be aa a3 55 be 77 0f d7 bc
       -0.19901994 -0.15226105 -0.20863214 -0.026252491
0003d0 1d 37 81 3d 8c 6f c1 bc 56 14 85 be f7 32 b8 be
       0.0630934 -0.02361276 -0.25992078 -0.35976383
0003e0 26 02 24 be 98 38 28 bd 4c 22 91 3c 8d 3c c7 3b
       -0.16016445 -0.041069597 0.01771655 0.0060802163
0003f0 27 75 db bc 4b e0 b4 bc e8 13 af 3b c1 d4 c1 bd
       -0.026789261 -0.022079607 0.005342949 -0.09464408

bias f4 [196]
000000 8e 2c df bc ef 90 20 bc b4 75 6b bc f7 1e 13 bb
       -0.027242925 -0.00980018 -0.014371324 -0.0022448876
000010 09 8a d6 bb 36 f5 f2 3c 96 f0 86 bb 6a 58 ac 3b
       -0.006547217 0.029657941 -0.0041180355 0.005259563
000020 c8 a7 3e bd f0 18 f1 bd 70 a6 61 bc 67 4b 1d 3d
       -0.046546727 -0.117723346 -0.013772592 0.038401987
000030 c6 f0 00 bd 7f fa d4 bc 70 2d 01 bc 41 95 12 3d
       -0.03147962 -0.025998352 -0.007884368 0.03578687
000040 14 e0 f0 bc 7d 01 24 bc 61 62 b8 bc b8 7b d5 bb
       -0.029403724 -0.01001012 -0.022507848 -0.0065149926
000050 42 e2 8a 3b 70 6c c9 bb f0 52 3e 3c 14 55 06 bd
       0.004238398 -0.00614696 0.0116164535 -0.03279598
000060 85 f3 6c bd 7a 97 78 bd fa 46 d0 bb 05 41 54 3c
       -0.057849426 -0.060691334 -0.0063561173 0.012954955
000070 87 4d 31 bd 44 a9 03 bd 0e 36 89 bd ae 75 d1 3c
       -0.043286826 -0.032143846 -0.06699763 0.02556881
000080 26 61 1e 3c fc ba bd bc af 6e 8f 3a 9b b5 e1 bc
       0.009666717 -0.02316045 0.001094302 -0.027552417
000090 1d b8 8b bd d5 6b b7 3b 22 ae 64 bc bf f8 d6 bc
       -0.06822226 0.0055975714 -0.013957532 -0.026241658
0000a0 ff 3a 20 bd 5a 29 42 bd 98 ab c8 3c 5b 67 84 bb
       -0.039118763 -0.047402717 0.024495885 -0.0040406412
0000b0 2f 97 37 3c 63 9b d1 3c 6f 2f 31 bc c6 95 28 3c
       0.011205479 0.02558679 -0.010814532 0.010289615
0000c0 da 21 d5 bc 4c eb 21 bc 99 82 9c bb ce f3 0b bd
       -0.026017118 -0.009882759 -0.0047763106 -0.034168057
0000d0 6e bc 48 bd 72 56 2e bd af fc 14 bd 16 5e 3f bd
       -0.049007826 -0.04256291 -0.03637379 -0.046720587
0000e0 b9 4f 18 bd 63 88 c1 3c fe 14 3b bc 0f 8d 24 bc
       -0.037185404 0.023624605 -0.011418579 -0.010043397
0000f0 f2 50 d9 bc 05 c6 26 bd 96 a7 15 bd 34 e8 28 3c
       -0.026527856 -0.04071619 -0.036536776 0.010309268
000100 c7 5d b7 bc a4 8b 97 bc 9f 5d 85 bd 48 0e c3 bc
       -0.022383584 -0.018499203 -0.065119974 -0.02381052
000110 8b b1 f4 3c 12 d0 63 bd 17 88 72 bc f6 0a 7f 3c
       0.029869815 -0.055618353 -0.014802954 0.015566578
000120 ef a0 2b 3b 77 80 1b bd a0 30 a4 bc 59 95 8e 3c
       0.0026188453 -0.03796431 -0.020042717 0.017405199
000130 9e 2c b7 bc 0c 29 28 bd e2 c6 1e 3b 01 a0 f9 bc
       -0.022360142 -0.04105477 0.002422743 -0.030471804
000140 e5 36 e1 bc e2 46 0e bd 5f 3d e0 bc 83 cd 20 bd
       -0.027491996 -0.034735568 -0.027373014 -0.03925849
000150 be 9f 55 bd 6e 11 d0 3c 01 c1 39 bd 31 bf e1 3c
       -0.052154295 0.025398936 -0.04535008 0.027556987
000160 dc 98 38 bb 90 46 32 bc 20 7b 1e bd 75 95 0d 3a
       -0.0028167283 -0.010881081 -0.03869164 0.0005400994
000170 cd ea 15 bc 5e 66 4a 3c 62 78 c3 bb 2d ad 36 bd
       -0.009150219 0.012353508 -0.0059652785 -0.044598747
000180 4d 02 55 bc a5 60 32 bd 02 a4 3d bc 45 fe 11 bd
       -0.013001037 -0.0435492 -0.011574747 -0.03564288
000190 12 1a 74 3b 68 c5 87 3c a5 5b b6 3c 3d a6 9b 3d
       0.0037246984 0.016573623 0.022260496 0.07600067
0001a0 f2 76 54 bd 10 bc d8 3c 21 e3 58 bc 03 30 36 bc
       -0.051871248 0.026456863 -0.0132377455 -0.011119845
0001b0 64 94 09 3c 05 eb 95 bc f6 d8 ab bc dd c7 0a bc
       0.0083971955 -0.018300543 -0.020977478 -0.008470503
0001c0 ad c2 5c bd 5f 33 e7 bc 23 cd df bb 72 3f a8 3c
       -0.053896595 -0.028222738 -0.006829874 0.020538066
0001d0 dd 5c f3 bc 19 3e 33 3c da 12 43 bc 88 03 31 3c
       -0.029707367 0.010940098 -0.01190635 0.010804065
0001e0 5d 31 36 bd d1 c0 9d bb 25 9e 7b bc 5f b9 a2 bc
       -0.04448067 -0.0048142453 -0.015357529 -0.019863782
0001f0 a8 61 32 3c fc 16 06 bd 7f 7b 90 3c f3 d5 19 bc
       0.010887541 -0.032736763 0.017637013 -0.009389388
000200 33 88 c2 bc d9 0a 20 bd 67 6f 70 3c ff 8e 0e bd
       -0.023746585 -0.039072845 0.014674998 -0.03480434
000210 85 80 94 bc 23 01 96 bc 2a 1b 8e 3c 24 8b 05 bd
       -0.01812769 -0.018311089 0.017346937 -0.032603398
000220 ee 0f ec bb a6 43 05 bd 50 aa 70 bc 20 95 db bc
       -0.0072040474 -0.032535218 -0.014689043 -0.026804507
000230 8f 6c b7 bc bf c3 9c 3c 2a 70 91 bd 23 82 5c bd
       -0.022390632 0.019136308 -0.07101472 -0.053835046
000240 55 43 2b bd 18 1a aa bc cd 49 06 3b 13 da 1e bd
       -0.04181226 -0.020764396 0.0020490766 -0.03878219
000250 16 8c c8 3c a0 c7 45 bb 6d c4 c4 bc 29 3d 8b bc
       0.02448086 -0.00301788 -0.024019444 -0.016996937
000260 64 09 ff bb 42 5b 0f bd 73 7f 66 bd 26 4b 92 bc
       -0.007783102 -0.03499914 -0.05627389 -0.0178581
000270 37 62 de bb 30 1f cc 3c 6b f9 fe bc e5 fb 12 3c
       -0.0067866105 0.024917215 -0.031124791 0.008971189
000280 35 fe 72 bc 28 d6 0f bd 96 72 94 3c 80 2e 34 bb
       -0.0148311155 -0.035116345 0.018121045 -0.0027493536
000290 db d0 34 bd e6 42 f4 bc fd e6 66 bc 1f 6c 11 bc
       -0.044144493 -0.029817056 -0.014093158 -0.008875876
0002a0 bc 57 1b bc 64 67 b8 3a 22 9f 58 bc 18 22 02 bc
       -0.009481367 0.0014068899 -0.013221534 -0.007942699
0002b0 e3 64 08 3d fd ac f7 3a 22 10 3d bc 6a 34 9f bb
       0.033299338 0.0018896159 -0.011539491 -0.004858543
0002c0 32 1a 02 bc 83 09 22 3d 03 87 ee bc 4e a6 b9 bc
       -0.007940816 0.039559852 -0.029117113 -0.022662308
0002d0 e4 47 56 3c aa bb de bb 96 cb 0a bd 64 55 69 3c
       0.0130786635 -0.0067972736 -0.03388556 0.01424155
0002e0 29 ce ae bc 43 0a 89 3b 37 81 82 3a 82 fd 3e bc
       -0.02133854 0.0041821315 0.0009956722 -0.011657121
0002f0 e5 02 81 bd 75 df 40 bd e1 5c 3b bd 63 cc a8 bc
       -0.0629938 -0.047088105 -0.045742873 -0.020605272
000300 22 91 84 bd 87 ac 9b bc 0a 67 c8 ba 59 a5 49 3c
       -0.064729944 -0.019003166 -0.0015289497 0.012307488

weight f4 [96, 196]
000000 90 90 7e be ef f1 79 be 1b da 09 3d 17 c9 85 3c
       -0.24859834 -0.24408697 0.033655267 0.016331239
000010 3b f4 05 bd dd 2d 69 bd e9 aa 81 3e 34 3c 5d 3c
       -0.03270362 -0.056928504 0.25325707 0.013503123
000020 71 99 63 3e c0 4d f7 3d d4 48 0b bb bd 3b 2e 3e
       0.22226502 0.120753765 -0.0021253126 0.17014976
000030 d6 d8 8f 3b 89 f2 97 bd 54 44 14 bf 45 7f 5e bd
       0.0043898625 -0.07419307 -0.5791676 -0.054320592
000040 7f 9d 30 3d 01 1c 95 bd c1 29 90 be 14 ed 6f 3b
       0.04311895 -0.07280732 -0.28156856 0.0036609815
000050 e0 d8 e0 bc 9b 1b a7 3d b7 23 49 3c 1f ba a5 3d
       -0.027447164 0.08159562 0.0122765815 0.080921404
000060 fa 63 9f 3e 56 bc a8 3d 08 5a 35 3d cc af 00 bd
       0.31130964 0.08239047 0.044275314 -0.031417653
000070 27 e2 22 3e 7c e1 43 3e 02 af 34 3d b5 7a 46 3d
       0.15906583 0.19128984 0.044112213 0.048456866
000080 41 05 92 bc 7c af 66 bd 5c d4 00 bd 90 3c 43 bd
       -0.01782477 -0.0563197 -0.03145252 -0.04766518
000090 5a c8 ca be c9 19 a3 be 4b 1b 7c bd 5f 2e 9d bc
       -0.3960598 -0.3185561 -0.061549466 -0.01918715
0000a0 9f d0 cb 3d 43 85 cb 3d cb 31 e0 3b 0b ee 8a bd
       0.09951901 0.09937527 0.0068418733 -0.06783684
0000b0 f5 73 7a bc f2 10 33 bd cf 87 b9 3c 63 44 71 3c
       -0.015286435 -0.043717332 0.022647766 0.014725777
0000c0 5d 0e 8d bc fa e0 26 be aa 44 99 bd 51 3b f4 3c
       -0.017218763 -0.16296759 -0.074838 0.02981344
0000d0 34 3d 06 be e6 4a 3f be 6c 08 0a 3c 00 4c 5d be
       -0.13109285 -0.18680915 0.0084248595 -0.21611023
0000e0 1a 49 fd ba db 33 32 bd 86 c9 8a 3d d4 47 90 bd
       -0.0019324154 -0.043506484 0.06776719 -0.0704495
0000f0 78 52 a4 3c 15 fa ed bc 9a d9 03 bc 5f d2 3d be
       0.020058855 -0.029049912 -0.008047486 -0.18537281
000100 34 4d 5e bc ba ea 0d 3d 88 e1 b2 3c 99 69 5e bd
       -0.013568211 0.03464768 0.021836057 -0.054299925
000110 6a f8 32 bc 34 92 17 3e e6 5a 8f 3c 64 35 2a be
       -0.010923484 0.14801866 0.017499398 -0.1662193
000120 4a 5c 2a be 96 1e 65 3d 38 5a 27 3d f2 ce c6 bc
       -0.16636768 0.055937372 0.040857524 -0.024268601
000130 1d d4 7d bd 1d 9a 40 3d ce 7c 15 3d a2 93 5d be
       -0.061969865 0.047021974 0.036495976 -0.21638349
000140 da 9e 90 3d 7b 93 76 3c 31 a5 38 be 98 62 ba 3c
       0.070615485 0.0150498105 -0.18031766 0.022752091
000150 12 dd 4d 3d ee 8a 56 bc 90 86 d8 3a df 9d 51 3e
       0.050259657 -0.013094647 0.0016519595 0.2047038
000160 f4 78 2d bc 49 b7 cf 3c 0b 73 3b 3e a1 00 b3 3c
       -0.0105879195 0.025355952 0.18305604 0.021850886
000170 83 75 7c bd 62 f7 5b bd c5 53 f7 3d df af 60 be
       -0.061635505 -0.05370272 0.12076525 -0.2194209
000180 bc dd 57 bc 6a 40 49 3e 03 89 67 3d 23 05 1a bd
       -0.013175424 0.19653478 0.05652715 -0.037602555
000190 b1 f8 c6 be c5 52 2b 3d 2a 8b 5d 3d 92 87 a1 be
       -0.3886161 0.041826982 0.054087795 -0.31548744
0001a0 28 bf 34 be 9d c3 84 bd 7f 58 3a be 8d 76 af 3e
       -0.17651045 -0.06482623 -0.18197821 0.34270135
0001b0 2c 8e 02 bf 12 5d 4b 3d c3 b0 07 3e 32 29 26 bd
       -0.5099819 0.049649306 0.13251023 -0.04056663
0001c0 a2 85 94 3d 2b cb 63 be 6c 5f 88 3d 94 2c 7d 3d
       0.07252051 -0.22245471 0.06658825 0.06181009
0001d0 a5 c6 1e 3e 71 d2 18 be 86 27 32 be 89 fd 33 3d
       0.15505464 -0.14924027 -0.1739789 0.04394296
0001e0 6e b5 e9 3c 30 31 2c bd bf c5 0e 3d 80 33 1b 3e
       0.028528895 -0.042039096 0.034856554 0.15156364
0001f0 d1 25 de bd f1 a8 2d 3d b3 d6 58 3d be 9b 6b bc
       -0.10847057 0.042397443 0.052939128 -0.014380394
000200 7d 0f 02 3c b4 55 93 be 3b cf 3b bd e9 ae 5a 3d
       0.007938263 -0.28776324 -0.045851927 0.053389464
000210 eb a7 0d 3d a9 8d dd 3c ee 78 11 bd 1a 40 26 be
       0.034583967 0.027045088 -0.03551572 -0.1623539
000220 68 ff 83 3d 53 e3 04 3d e5 e1 94 3d df aa 84 3d
       0.06445199 0.032443356 0.072696485 0.064779036
000230 d3 72 95 3e 96 17 4e 3d eb 15 ea bd b2 37 1a ba
       0.29189166 0.050315462 -0.11429962 -0.0005882933
000240 8a ed 6e 3e f4 c5 02 3e c4 08 6c bd e5 0e 38 be
       0.23332801 0.12770826 -0.057625547 -0.17974432
000250 8b 1f 54 bd b7 ff fb 3c 80 a6 3b 3d 92 c4 82 be
       -0.051787894 0.030761583 0.045813084 -0.25540596
000260 19 2c 0d 3e d6 fe 89 be 9c 76 a6 bd 7f 19 7d bc
       0.13786353 -0.26952237 -0.08128092 -0.015447973
000270 82 62 82 3c b3 2c c2 bd 5b 01 12 3e 01 6c 39 bf
       0.015916113 -0.09481182 0.1425833 -0.72430426
000280 8c ec 2c 3d 01 8f 7b bd 75 6c 14 3d fe 45 63 3e
       0.042217776 -0.061415676 0.036236245 0.22194669
000290 92 ad 6e be 43 4b c8 3d b7 de 5c bc a3 a1 51 3c
       -0.233084 0.0977998 -0.013480834 0.012794885
0002a0 83 5c e6 bc c5 e2 43 bd 3d 8c 0f 3c 44 b9 3b 3e
       -0.028120285 -0.047823686 0.008761463 0.18332392
0002b0 57 39 7a 3d 3f 6c a2 bc 2d da 9f ba 5e 86 4b be
       0.06108984 -0.019827006 -0.0012195759 -0.19875476
0002c0 55 68 09 bd a8 6f 00 be 2a 90 28 3e ca df d4 3d
       -0.033546764 -0.12542593 0.16461244 0.10394247
0002d0 ce 1e eb 3b b1 64 30 bc c6 a5 50 bd 78 68 a2 be
       0.007175303 -0.010766194 -0.050939344 -0.31720328
0002e0 ff c1 d6 bc 83 56 d2 3c 6a f4 87 bd 40 5c 14 3e
       -0.026215551 0.025676018 -0.06638415 0.14488316
0002f0 9f 74 64 3d ea 31 d0 bd bb 73 51 3e e8 ab ae 3c
       0.05577528 -0.1016577 0.20454304 0.021322206
000300 90 80 df 3d 7a 7b e8 bc d4 e9 af 3b f9 51 2c be
       0.10913193 -0.02837919 0.0053684507 -0.16828145
000310 bb fe 2b bd 12 f5 f4 be c6 b4 56 3d d7 ef 0f be
       -0.041990977 -0.47843224 0.052418493 -0.14056335
000320 2a dc b4 bd 9c cd 21 3d a8 55 48 be a8 ba 39 3d
       -0.088310555 0.039502725 -0.19563925 0.045344025
000330 10 fa 06 3d 6f 9f b6 bd aa e8 16 3d cb 77 86 bd
       0.032953322 -0.08917128 0.03684298 -0.065658174
000340 70 6f 46 3d 89 7e 90 3c 7f 0a 72 bc 5e 10 10 3d
       0.04844612 0.017638462 -0.01477301 0.03517186
000350 57 a8 27 3b 89 eb f3 bd 6a 29 0b 3c 50 d3 49 bb
       0.0025582516 -0.11910159 0.008493761 -0.0030796118
000360 8c 33 91 bd 9d 75 9d be 37 73 26 3d 85 4b 2b be
       -0.0708991 -0.30753794 0.04063722 -0.16728027
000370 cb e7 ad 3d e9 f6 0f be f4 ac 92 3d 3f 7f 03 bf
       0.084914766 -0.14059032 0.071618944 -0.5136604
000380 2a f2 03 3e 7b c4 6f 3c 84 3b d6 3d c5 4a 6f 3c
       0.12885347 0.014634247 0.104605705 0.014605229
000390 bf 35 58 be 82 4e 37 3d f2 95 08 bd 4c 74 82 bb
       -0.21114253 0.044752605 -0.033346124 -0.003981149
0003a0 7d f7 07 3e 0e 4a 4f 3d 66 c4 13 bd df c8 21 bd
       0.13278003 0.050607733 -0.036075972 -0.039498206
0003b0 96 eb b2 bd b7 6d 47 bc c8 62 b9 3d 2a ec ef 3c
       -0.08736341 -0.012172154 0.09052044 0.029287416
0003c0 2d ef ad bc 71 33 6a 3d c4 6e dc 3c 6a c5 b7 3c
       -0.021232212 0.057177965 0.026908286 0.022433002
0003d0 5c c6 63 bd 9b 43 9b 3d b0 5b 4e 3c a7 9f 1d bd
       -0.055609092 0.07581254 0.012595102 -0.038482334
0003e0 82 a1 1a bd 31 20 e6 bd e4 68 85 3d 21 a7 87 3d
       -0.037751682 -0.11236609 0.06514147 0.06623674
0003f0 60 b8 64 bd 9c 36 9a 3d ad f1 3d 3d a6 18 12 3d
       -0.055839896 0.07529947 0.046373058 0.035668038

bias f4 [96]
000000 17 d7 08 bd 93 34 4b 3b c2 cb d8 3d bd 72 1b be
       -0.03340825 0.0031006678 0.10585739 -0.15180488
000010 2a f4 af be e7 7e fe 3e 3b d1 45 3e 7b da 9a 3c
       -0.3436597 0.49706194 0.19318096 0.018903008
000020 ca 82 2a be 39 07 35 3e d8 55 7a 3d 9f 8e 35 be
       -0.16651455 0.17678536 0.061117023 -0.17730187
000030 33 20 26 bd 46 ad e6 bd 72 ae 8a bd fe 59 9c 3c
       -0.04055805 -0.11263518 -0.06771554 0.01908588
000040 14 a0 17 be 18 4a 0b 3f b7 95 a3 3e 29 56 a9 bd
       -0.14807159 0.54409933 0.3195016 -0.08268387
000050 6b 23 a0 bd 84 e5 17 3c 64 7b cd bc 86 35 e4 bd
       -0.078192554 0.009271029 -0.025083251 -0.11143021
000060 28 18 bf be 69 4d 88 3d 26 cc 35 be e5 b6 e9 be
       -0.37323117 0.0665539 -0.17753658 -0.4564735
000070 b9 a6 4a be 3f 34 ca be 37 e5 96 be aa 66 13 be
       -0.19790162 -0.39492986 -0.29471752 -0.14394632
000080 98 c7 0b be a8 2b 84 be e0 88 79 bd 07 90 8e 3e
       -0.13650358 -0.25814557 -0.06092155 0.2784426
000090 ca 3f 90 be 3a 07 9c 3e 5b 81 c4 3e bd c5 61 3e
       -0.28173667 0.30474263 0.3837994 0.22048087
0000a0 c3 f3 ab bd ee 04 ab 3c 4d 7f 14 be 85 a9 4c be
       -0.08396103 0.020876374 -0.14501686 -0.19986542
0000b0 77 0c 52 bd dd b3 65 3e 6d 75 ef 3c f6 16 dd bc
       -0.05128142 0.22431894 0.029230798 -0.026988488
0000c0 20 99 42 be fd 53 0d be 3c d8 e1 3d 0d 34 ef 3d
       -0.19003725 -0.1380157 0.110275716 0.1167985
0000d0 d4 bf 26 3d 41 c2 ae bd db 80 44 3c 44 68 63 be
       0.040710285 -0.08533145 0.011993612 -0.22207743
0000e0 36 36 75 bd a0 99 96 be f5 45 d6 bd a7 a2 eb bd
       -0.059866153 -0.29414082 -0.10462562 -0.11505633
0000f0 f8 fd 2f 3d cf f4 34 3e 9a d9 4f be b9 89 00 3e
       0.042966813 0.17671512 -0.20297852 0.12552537
000100 cc 54 2c be 96 e9 1f be fe 16 99 bd 82 38 96 bd
       -0.16829222 -0.1561645 -0.074750885 -0.07334997
000110 9a 99 d0 3d 6d 4b f1 3d d6 d3 33 3c 51 cc 18 3d
       0.10185547 0.117819645 0.010975799 0.037304226
000120 26 9e 2f 3e 71 80 68 bc 9f 55 04 3d 9f 21 08 be
       0.17150173 -0.014190779 0.032308217 -0.13294075
000130 cb 8d 83 bd 0d 8f b3 bc 91 58 f6 bd f0 fd 32 be
       -0.06423529 -0.021918798 -0.120286115 -0.17479682
000140 12 ef 7c 3e a5 7c bd 3c d0 ea 7e be ca 77 de bd
       0.24700573 0.023130724 -0.24894261 -0.10862692
000150 98 fd 0a 3d c3 d4 8a be e8 67 9d bd d6 3c d7 3d
       0.033933252 -0.2711545 -0.07685834 0.105096504
000160 24 7e a7 be 1b 03 1a bd 25 77 6d be d5 81 e9 3d
       -0.32713425 -0.037600618 -0.23189981 0.114017166
000170 ff e2 73 3e 55 5a 43 bc 20 9e 7e be ca 14 1a 3e
       0.23817061 -0.011923392 -0.24865007 0.15046993

weight f4 [64, 96]
000000 03 50 c9 3d d9 54 17 bc 72 e4 f1 3d 93 94 38 bd
       0.09829714 -0.009236538 0.118111506 -0.045063566
000010 8c 5c e4 bc 8e a2 9d bc e2 03 e4 bc cd 2f f6 bd
       -0.027876161 -0.019242551 -0.027833883 -0.12020836
000020 5c 9f 8a 3e 7b 81 28 be 22 5a 6c 3d 3c 95 33 be
       0.27074707 -0.16455643 0.057703145 -0.17537397
000030 75 d1 fc bc 85 f6 ea 3d f0 25 7d 3e ac 88 98 3e
       -0.030861596 0.11472801 0.24721503 0.29791772
000040 09 a5 05 bd b1 0d 15 bd 13 20 41 be e0 ab e2 bd
       -0.032628093 -0.03639001 -0.18859892 -0.11067939
000050 7d cd 16 3d b4 d7 52 bd ad 2a 7d 3d 5a 80 e1 be
       0.036817063 -0.05147524 0.061808277 -0.44043237
000060 43 d4 94 bd c8 7e 20 3e 61 3b ba ba 44 a5 b1 bd
       -0.07267048 0.15673363 -0.001420837 -0.086741
000070 2d dd 14 3e f6 b3 4b 3d 6c df e6 bc 4e 7c 93 3d
       0.14537497 0.04973217 -0.028182708 0.072014436
000080 e4 20 8b be 0b 6d 03 bd 57 55 68 be f7 cb 53 bd
       -0.2717353 -0.032086413 -0.22688805 -0.051708188
000090 4f b3 08 be 70 92 70 3c 7e 7c e2 bd 11 99 04 be
       -0.13349651 0.014683351 -0.11058901 -0.12949015
0000a0 37 41 18 3d b5 8a 8c 3b 7c 95 16 be 66 b8 65 be
       0.03717157 0.004288996 -0.14705461 -0.22433624
0000b0 50 fc 84 3c 34 8d d9 3e 6b 1b fa be d2 13 7c bc
       0.016233593 0.42490542 -0.48849043 -0.015385585
0000c0 cf d0 7c be 3d 54 c8 3b e5 8e 20 bd 32 f3 64 3d
       -0.24689029 0.0061135576 -0.039198775 0.05589599
0000d0 92 ed 65 3d e4 e0 0f 3c ad b4 a9 bd a5 9d 16 bd
       0.056134768 0.008781645 -0.08286414 -0.036771435
0000e0 5e ce 43 bd 52 81 b1 bd f7 08 cf 3d 53 11 a6 3d
       -0.04780423 -0.08667244 0.10109132 0.08108773
0000f0 cc d7 07 be a0 41 a4 3e 9d 31 10 3e 20 cd 8a be
       -0.13265914 0.32081318 0.14081426 -0.27109623
000100 14 d5 4a 3e 50 a0 3e 36 7a 61 7a be c7 4c 10 3c
       0.19807845 2.840552e-06 -0.24451247 0.008807368
000110 b6 72 68 3e 72 a4 45 3e 9c 55 a7 be e3 d7 9c 39
       0.22700009 0.19301012 -0.32682502 0.00029915487
000120 e9 22 8d be db 00 a8 3e df 40 76 3d 3b e0 31 bd
       -0.27565697 0.32813153 0.06012046 -0.043426733
000130 4c eb 61 3c 87 43 ee bd 14 19 df 3d 44 ac b3 be
       0.013789009 -0.116339736 0.10893455 -0.35092366
000140 31 36 e4 bd db 8d 82 3d 7a 3a 0e be b7 89 2d bd
       -0.11143149 0.06374713 -0.13889495 -0.042367663
000150 a4 6a 2f 3e 82 dd 8b 3e dd 07 ca 3d 25 4a 1f bd
       0.17130524 0.27317435 0.09864781 -0.03888907
000160 86 bd dc bd 81 d4 fc bb ab be 1b bd 7f 1c 69 3e
       -0.10778336 -0.007715762 -0.038023632 0.22764777
000170 ad 0f 9e bd b1 64 bf 3d b8 88 0e be 92 b4 82 bd
       -0.07717834 0.09345377 -0.13919342 -0.06382097
000180 74 26 04 bd b8 0c 21 3c fd c8 17 3d c7 e8 55 bb
       -0.032263234 0.009829693 0.03705691 -0.0032639967
000190 c1 66 c0 3c 92 6a 67 3c 65 63 02 bd 2d f8 5f 3d
       0.023486497 0.014124529 -0.03183307 0.05468004
0001a0 76 73 b9 b9 e9 66 49 bc a0 10 be bd 2e c5 88 bc
       -0.00035371975 -0.012292602 -0.09280515 -0.016695585
0001b0 f4 12 14 bd 35 9d 83 bb ad fc 10 be 51 60 06 bd
       -0.036150888 -0.0040165433 -0.14158888 -0.0328067
0001c0 92 62 90 bb 2a 5d 9c bd 77 0a 01 be da f9 b1 bd
       -0.0044062817 -0.07634957 -0.12601648 -0.086902335
0001d0 3d 49 ae b9 9f f4 89 3c 02 a2 55 bc ab ea 9a 3d
       -0.00033242433 0.016840277 -0.013039114 0.075642906
0001e0 a6 32 07 3d 3f 7e a3 bd 35 70 62 3d f7 d5 db bd
       0.033007286 -0.07983064 0.05528279 -0.1073417
0001f0 8e f9 95 3c 79 a2 91 bd 7f 66 ba 3d f2 3b a5 3d
       0.018307474 -0.07111067 0.09101581 0.08068074
000200 25 8b 30 bd a2 0a ee bc 35 d1 a6 bd 16 43 e9 bd
       -0.04310145 -0.029057804 -0.08145372 -0.11389749
000210 20 0b 89 bd c5 e8 03 be 1b 6b e8 bd c3 b5 dd bd
       -0.06691575 -0.12881763 -0.11348554 -0.10825684
000220 8a 48 bd 3d 46 6a e3 bd bf c6 a5 bd 48 41 04 be
       0.09242351 -0.111042544 -0.080945484 -0.12915528
000230 d0 5a b5 bb 1f 95 5b bd 32 66 cf bd 30 02 dc bc
       -0.0055345073 -0.05360901 -0.10126914 -0.026856512
000240 e1 1e 2d 3c 03 0e 35 bd 46 9d b7 bd 6b ef f5 bd
       0.010566444 -0.044202816 -0.089655444 -0.12008556
000250 64 bc 05 be 07 11 1a bb 9d 20 fb 3b 68 16 7e 3c
       -0.13060147 -0.0023508684 0.0076638 0.015508272
000260 8e ed 40 3d ae d6 ba bd ea f0 81 bd fc d4 45 bd
       0.04710155 -0.09122978 -0.06344779 -0.04829882
000270 52 43 99 bd 29 07 f4 bc 1e 94 64 bd b8 ff ed bc
       -0.074835435 -0.02978857 -0.055805318 -0.0290526
000280 18 aa e8 3c 31 6d 8f bd 24 3e ac 3c 49 53 bd 3c
       0.02840142 -0.070032485 0.021025725 0.023111003
000290 54 2e 09 3d 2d b2 e5 bd de e5 0b 3c 97 db d0 bd
       0.033491448 -0.11215625 0.008538691 -0.101981334
0002a0 d9 93 83 bd 49 c6 c2 bb ce 9a b3 bd 01 57 f5 bc
       -0.06424684 -0.0059440476 -0.08769761 -0.029948713
0002b0 be 47 98 3d 0f 37 7c bd 32 b9 47 bd 21 60 11 be
       0.07435559 -0.061575945 -0.0487606 -0.14196827
0002c0 14 f5 61 bd ec 1d b7 3c 76 9f e7 bc d2 ce ab bd
       -0.055165365 0.022353135 -0.02827428 -0.08389057
0002d0 e0 30 a4 bd 5e 63 73 bd 2c 15 69 bd 85 5e 3d bd
       -0.08017135 -0.059420936 -0.056904957 -0.04623272
0002e0 76 e1 74 bd 9e 87 8f bd 27 1f 5d bd dc 54 37 bb
       -0.05978533 -0.07008289 -0.053984787 -0.0027974164
0002f0 be a3 92 bd 2c 25 e2 bc 31 4c 80 bd 84 6e 41 bd
       -0.071601376 -0.027605616 -0.06264532 -0.047224537
000300 d3 a3 b5 3d fa 61 cd bd fd 44 8a 39 59 0e 35 3e
       0.088691376 -0.10028453 0.0002637281 0.17681254
000310 21 5d bc bd 6b 68 ef bd c2 97 05 3e c7 ec b7 3e
       -0.091974504 -0.11689838 0.13046172 0.35922834
000320 aa 31 f0 3d f3 de 8a bd d9 5c 07 3e 23 d9 eb bb
       0.11728223 -0.067808054 0.13219012 -0.0071975156
000330 26 bb c8 3c 5b e7 0b 3e 16 5c 41 3a 24 2d a1 be
       0.024503302 0.13662474 0.00073760876 -0.31479752
000340 ef 31 15 3d 1f df fa 3d 11 64 8a be c1 b0 e0 3d
       0.036424574 0.12249588 -0.2702947 0.10971213
000350 d7 f0 2a bd 0b 96 8e be 22 f3 15 3e 8a 56 3a bd
       -0.04173359 -0.2784885 0.14643529 -0.045492686
000360 13 9c cc 3d e9 ee 25 be c7 7f d2 3d c0 39 a9 3d
       0.09990706 -0.16204418 0.10278278 0.08262968
000370 0e 8f ae be c3 5d eb 3d d0 42 2a 3e 1b 9d 1f 3e
       -0.34093517 0.11492493 0.1662705 0.15587275
000380 2c 50 89 be f3 54 88 bd bb d3 4a 3e 49 43 d5 3d
       -0.2681898 -0.06656828 0.19807331 0.10413224
000390 3d 27 34 be 6c 5b 4b bc b3 9f 0f bd 68 5e 2b 3d
       -0.17593093 -0.012411933 -0.03506441 0.04183808
0003a0 6f 5a 63 3e 63 a0 66 be 29 83 d2 3d e5 08 df bd
       0.22202466 -0.2252212 0.10278923 -0.10890368
0003b0 56 3e b0 39 5e 31 d2 be 96 9e b1 bd 7a c8 8d bd
       0.0003361578 -0.4105329 -0.08672826 -0.069230035
0003c0 ee 7e 77 3e 26 16 01 3d b0 11 37 bd a6 e7 3e 3e
       0.24169514 0.031515263 -0.044694602 0.18643054
0003d0 b9 dc 84 3e 25 37 f9 3b ef d8 58 3d e8 d4 75 bc
       0.25949648 0.0076054507 0.05294126 -0.015004374
0003e0 71 36 a9 3d 30 3c a9 3d d9 b2 62 bd a9 67 07 3d
       0.08262337 0.08263433 -0.055346344 0.033057842
0003f0 f7 63 97 3d ed 92 02 3c da 2e 9c 3d 59 af 46 3d
       0.07392114 0.0079696 0.07626124 0.04850707

bias f4 [64]
000000 f4 f0 17 3e 7a c3 10 bd c1 75 69 3e 56 ae ca 3e
       0.1483801 -0.03534267 0.22798826 0.39586133
000010 d3 ae b1 be 8b 91 85 bc e0 50 97 bd ca 7d f9 bd
       -0.34703693 -0.016304752 -0.073884726 -0.121821955
000020 be fe 3f be ec ce 91 be 35 67 a0 3c e5 83 26 be
       -0.1874952 -0.2847818 0.019580463 -0.16261251
000030 08 1c d7 be 9a 29 66 ba 03 f8 c3 be 36 9b 1e bd
       -0.42013574 -0.0008780003 -0.38275155 -0.03872224
000040 da 0e 87 3c ed 18 c6 3b 0f c0 e5 ba c0 56 85 3e
       0.016486574 0.006045452 -0.0017528551 0.26042747
000050 33 b2 fd bd 39 bc 0f 3f 16 00 25 bd 08 bb 04 3f
       -0.123875044 0.5614658 -0.040283285 0.5184789
000060 91 f2 dd bd ed 58 47 bc 67 70 32 bc 24 9e 48 bd
       -0.108372815 -0.012167198 -0.010891057 -0.04897894
000070 f7 5e 83 3e e8 c9 84 be 08 db 3d be 8c 16 16 be
       0.2565839 -0.25935292 -0.18540585 -0.14657038
000080 7e ee e9 3e 82 cf 9e be 6c 15 f4 3d ad 4a 2d be
       0.45689768 -0.3101769 0.119181484 -0.16923018
000090 9f d2 b5 3e 3b e1 ad 3e 03 c4 22 3e 23 67 00 be
       0.35512254 0.339609 0.15895085 -0.12539344
0000a0 4f f6 8c bb c5 89 02 be 0b 46 62 3d e4 88 7e 3e
       -0.004301823 -0.12747867 0.05524258 0.24856907
0000b0 19 8a 53 3d 82 d2 e0 bc 37 fa 80 be 56 98 42 be
       0.051645372 -0.027444128 -0.251909 -0.19003424
0000c0 49 11 fc 3e 85 f9 af 3e f9 57 f0 bc f0 48 2e 3d
       0.49231938 0.34370056 -0.029338824 0.042550027
0000d0 c9 72 02 be fc 79 41 3e 20 a2 60 be 41 35 b8 be
       -0.127391 0.1889419 -0.21936846 -0.3597813
0000e0 89 be 33 be 9d 2f 0f 3e d6 3b e1 3d 39 dc a4 bc
       -0.17553152 0.13983007 0.10997741 -0.020124542
0000f0 f5 f1 82 be 9b 84 e8 bc b6 ff cc 3e b2 8b 53 bc
       -0.25575224 -0.028383544 0.40038842 -0.012911724

weight f4 [10, 64]
000000 17 d5 15 bd 8e 9b 01 be eb a2 9a 3a ef a4 8a be
       -0.03658017 -0.12656996 0.0011797821 -0.2707896
000010 c2 de c9 be 6c 86 04 3d 18 b3 2a 3e 5d e4 b6 3d
       -0.39427763 0.032354757 0.16669881 0.089302756
000020 4c ba 64 bc f3 fd ca be e0 6b 8c be 59 6b e9 bc
       -0.013960432 -0.39646873 -0.27426052 -0.02849357
000030 07 32 80 bd 75 7b 54 3e 11 58 c4 3d 67 6a 16 be
       -0.06259542 0.2075022 0.0958711 -0.14689027
000040 e9 af 13 bf 5d 28 9a be 5d df 92 be b8 f8 94 be
       -0.5769029 -0.3010892 -0.28686038 -0.29096007
000050 58 2d 76 3c fa c8 1a 3c 1e 95 93 bc e3 0d b5 be
       0.015025459 0.009447331 -0.01801544 -0.35362157
000060 c0 e3 64 3d fa ef ac bd ba 11 6d bd 35 b7 54 3c
       0.05588126 -0.084442094 -0.057878233 0.012983133
000070 97 1d aa bc c6 bb c4 be 69 a7 19 3d df 31 12 be
       -0.020766063 -0.3842451 0.03751317 -0.14276837
000080 a0 fa 61 bd a3 ec b8 be 84 fe 07 be 4c 27 45 be
       -0.055170655 -0.3611804 -0.13280684 -0.19253272
000090 16 b3 1c be 51 64 94 bd 1b 9e ed bd 6f 38 86 3d
       -0.15302691 -0.07245696 -0.11602422 0.065537326
0000a0 20 65 9e bf 18 5a f1 3d dc f6 f4 39 6e d2 82 bd
       -1.2374611 0.11784762 0.0004672323 -0.063877925
0000b0 07 c0 64 bf b0 a4 82 be 20 f8 ec 3d db bf d0 be
       -0.8935551 -0.25516272 0.115707636 -0.40771374
0000c0 ab 5a 82 be a9 5d fc 3c b8 be 87 bd 9c ae bd 3c
       -0.254598 0.03080638 -0.066281736 0.02315455
0000d0 c5 75 34 3e 53 54 4e be c0 5a 5c be 5e 6d ee 3c
       0.1762305 -0.20149355 -0.21518993 0.029104885
0000e0 2c 1e 59 be c0 a3 fa 3d 54 13 0f 3d f5 dc 3c 3d
       -0.21202916 0.12238264 0.034930542 0.04610916
0000f0 80 72 a1 be fd 18 2c be 3d ce 0d 3e 9f ce 1c bb
       -0.3153267 -0.16806407 0.13848205 -0.0023926867
000100 c1 ac e7 bd 3f c6 b4 bd e9 c9 d6 bd cd c1 a6 bd
       -0.11312247 -0.08826875 -0.1048773 -0.08142433
000110 3c 1e c4 bd a9 21 9e be 37 ab 48 bf f1 26 e8 bd
       -0.09576079 -0.30885056 -0.78386253 -0.113355525
000120 b5 36 6b be 23 75 d9 3c 94 f2 2a be 63 32 ac be
       -0.22970088 0.026545113 -0.16694099 -0.33632192
000130 ec d3 1e 3e 31 e0 a0 3d a9 01 b4 be e9 d7 86 be
       0.1551053 0.07855261 -0.35157517 -0.263366
000140 71 f7 48 3d 39 ab 0b 3d c3 31 16 bf 05 67 06 3e
       0.049064104 0.034098838 -0.5866968 0.13125236
000150 b3 0a 9b be ab 0b 85 3d 9d b2 f5 3c 50 11 fd bd
       -0.302816 0.06496366 0.029992396 -0.12356818
000160 3e 61 08 3e 3c a1 80 3d 5a e9 79 be 8a 19 14 3d
       0.13318345 0.06280753 -0.24405423 0.03615717
000170 90 b6 96 be 8e 08 fe bb 4d e0 82 be 9b 19 43 be
       -0.2943616 -0.0077524846 -0.25561753 -0.19052736
000180 6d ed 21 be 46 39 3a 3e b7 a0 e5 3d ca b4 fe 3c
       -0.15813227 0.1818591 0.112122945 0.031092066
000190 f7 71 03 bf 62 18 c4 3d 17 a6 0a bd a1 9a 45 be
       -0.5134577 0.09574963 -0.033849802 -0.19297267
0001a0 38 a7 1e be c9 c0 0d 3e 1c be 2f be 3a ff b1 be
       -0.15493476 0.13843073 -0.17162365 -0.34765035
0001b0 56 ad 08 bf 6c 7a 0d 3e 44 b7 85 3d 94 ad 21 bd
       -0.5338949 0.13816231 0.06529096 -0.039472178
0001c0 91 d4 af be e4 9c be bd f0 cf dc 3d 3c cb a0 bd
       -0.34341863 -0.09307268 0.107818484 -0.07851264
0001d0 a3 48 7f be f1 01 6c 3d 23 78 1f bc f5 40 8a 3d
       -0.24930052 0.05761904 -0.009733233 0.06750671
0001e0 5d 99 63 bd a8 16 47 be dc 79 2f bf 9d 65 86 be
       -0.05556618 -0.19442236 -0.6854532 -0.262494
0001f0 3e d2 00 3e d3 4f 0d be 91 5f 95 be d1 78 78 3d
       0.12580201 -0.13799982 -0.29174474 0.060662095
000200 4e 92 15 3e a1 d2 a6 bc 5d 49 35 be af 9c 12 be
       0.14606592 -0.020364108 -0.17703767 -0.14317583
000210 72 99 8b 3d 2d 2a bc 3d f5 42 f2 bd 70 84 71 3d
       0.06816377 0.09187732 -0.11829177 0.058964193
000220 ba 8a 7b bd 6c d3 74 be 8a 1e 1a 3e e7 d6 cc bd
       -0.061411597 -0.23908776 0.15050712 -0.10001927
000230 f5 6e ab bd 0d 74 a8 bc f6 7e ac be 3f 51 98 bc
       -0.08370773 -0.02056315 -0.33690614 -0.018593429
000240 e5 2b 46 be b9 ba 09 be 8c ab cd be 8c 0f 1e be
       -0.19352682 -0.13450135 -0.40169942 -0.15435618
000250 6f 16 c1 3d 49 16 ad be b9 a0 c0 bd 11 13 0c bc
       0.09428107 -0.33806065 -0.094056554 -0.008549468
000260 a9 64 61 be 0d 43 0f 3e ff d2 68 be fe 22 86 bd
       -0.22011055 0.13990422 -0.22736739 -0.06549643
000270 2e a2 5e bc ff 0d 0a 3e e9 69 3c 3e 46 c3 8b bd
       -0.013588471 0.13481902 0.18399777 -0.06824355
000280 cd 42 a0 bd 3c 9c 7f 3d d6 74 2e 3d 1b 2a 0e 3e
       -0.07825241 0.062404856 0.042591892 0.1388325
000290 1f 1d 11 bd af 11 b7 3d 1f 0e 43 3e bd 23 77 be
       -0.035428163 0.0893892 0.19048356 -0.24134727
0002a0 b2 9e 32 be e7 cf 83 be 56 0f 7f 3d 24 d7 c4 3d
       -0.1744335 -0.25744554 0.062270485 0.09611347
0002b0 81 c9 27 3e 5b 85 52 be 28 a1 26 be 0a 60 91 bc
       0.16385461 -0.20558684 -0.16272414 -0.01774599
0002c0 b7 12 a8 be 5b 87 c1 3b 4c d7 83 bc c0 77 6c bd
       -0.32826778 0.005906028 -0.016093872 -0.05773139
0002d0 09 f9 08 bd cc 7c 24 3d fd d2 71 be 83 6a 2d 3c
       -0.033440623 0.040158078 -0.23615642 0.010584476
0002e0 e2 40 c1 bc 7d 92 bf 3b e8 87 5b be d5 51 fc 3c
       -0.023590509 0.00584632 -0.21438563 0.03080074
0002f0 b4 ab 2b be 20 de 22 be fe 10 98 bd 7d a7 f9 bd
       -0.16764718 -0.15905046 -0.07425116 -0.12190149
000300 82 0c bf bd 31 93 ec bd b7 b7 41 be 10 d5 40 3d
       -0.093285576 -0.11551512 -0.18917738 0.047078192
000310 b3 43 0f bf 85 eb a3 be 7d 58 9f bd 59 3e 56 3c
       -0.55962676 -0.32015625 -0.0778055 0.013076388
000320 14 45 8b bc 36 a5 1c be 81 17 79 3d 30 28 16 bd
       -0.017000712 -0.15297398 0.06081343 -0.03665942
000330 6f 54 36 3d 96 07 98 be 8c 23 3b be ca ba a4 bc
       0.044514116 -0.29693288 -0.18275279 -0.0201086
000340 38 a5 3f bd 2b 3f 30 3e 91 cd 08 bf a1 40 46 be
       -0.046788424 0.17211597 -0.5343867 -0.19360591
000350 ea 7a 14 3e 35 b8 2b be 1e 73 3d 3d b0 a0 8f bd
       0.14500013 -0.16769488 0.046252362 -0.070130706
000360 4f dd 55 3d 4f a9 88 be 78 ea 8d 3d ab c7 91 bd
       0.05221301 -0.26691672 0.06929487 -0.07118162
000370 6c 13 6c 3d 78 29 13 be 88 07 c8 3c 98 5a 8b bd
       0.05763571 -0.14371288 0.024417654 -0.06804389
000380 f3 70 a3 bd 85 1f 49 be b6 4c c8 bd 37 44 16 3e
       -0.07980528 -0.1964093 -0.097802565 0.1467446
000390 ce 9a f4 bd d0 80 b7 3d 61 fd a0 3d 27 34 ee bd
       -0.11943589 0.08960116 0.07860828 -0.11631041
0003a0 9c a4 18 3e 5b 99 82 be b0 36 2a 3d 94 c6 06 bd
       0.14906543 -0.25507626 0.04155606 -0.032904223
0003b0 9b f3 9d be 39 db ab 3d 5c 7e b4 bd 0d 35 99 3d
       -0.3084992 0.08391423 -0.08813164 0.07480822
0003c0 14 14 e8 3d c2 87 8c 3c ec d0 41 3d eb 19 67 be
       0.113319546 0.017154578 0.047318384 -0.2256848
0003d0 fb 0e 34 be bb 0e b0 be c5 cf 02 bf 2e e7 8e bd
       -0.1758384 -0.34386238 -0.5109828 -0.06977688
0003e0 07 40 c5 3d 27 93 44 3c 6e fb 90 be d1 1d e2 bd
       0.09631353 0.0119979745 -0.28316826 -0.11040843
0003f0 2d 9d da bd 3c 0c c0 bd c7 81 77 3d 5c b3 15 3d
       -0.1067451 -0.093773335 0.0604265 0.036548004

bias f4 [10]
000000 1c cf 22 be e2 ba 90 be 4b 67 82 be e5 f2 1a 3d
       -0.15899318 -0.2826758 -0.2546943 0.0378293
000010 18 10 fb 3d a9 a9 cc bd f7 a5 4a be 6f ba c9 be
       0.12258929 -0.099932976 -0.19789873 -0.3940005
000020 7c 3c 23 3f 42 e5 2d 3e
       0.63764167 0.16981986
